neuroc_pygs/sec6_cutting/out_cutting_method_res/gat_amazon-photo_best_model.pth (torch_old, 195086 bytes, 8 tensors)

convs.0.att_i f4 [1, 8, 8]
00000000: 711e 9a3b ec3e cebb 1f43 6e3b 6dea e3bc
00000010: 76bc 8dbb 569c c1bc d9ff 06bd c1f4 273d
00000020: 3ece aebc f823 b5bb fb73 c3bc 4d6a 473c
00000030: d6be 1f3d 4912 54bb 68ce 673d 4bb1 5a3d
00000040: 4a85 bdbd 348c 91be ebea a13e 1030 9ebe
00000050: a04c 8fbe f8ab 413e 3aac 113e 4a71 84be
00000060: 541e 4cbd 9054 adbd ebd4 da3d 7940 aa3d
00000070: 16b3 b43d e7d0 dcbc 0783 8d3c e9ef 0bbd
00000080: 908b 5fbb 1c6a 75bc e54b b0bb 0026 003d
00000090: 61e2 103d 26e9 6f3c 6683 62bc 786c 073d
000000a0: 823f 4cbd d650 3ebc a954 fd3a 07d3 623d
000000b0: c15f 1c3c 52d0 373d e40e 7c3c 4622 0fbd
000000c0: 632c 5dbd 28e5 e03c 2268 8f3d 6929 4d3d
000000d0: 18f8 173c 2481 07bc 1720 293d bdd2 0cbd
000000e0: aa21 5ebc 9b07 07bc bbaa 1e3a 6e5d 85bd
000000f0: e335 a73d ba72 c1bc bd0e b8bc dc0b 8f3c
0.004703336 -0.006294122 0.0036355925 -0.027821744 -0.004325445 -0.023634117 -0.03295884 0.0410049
-0.021338578 -0.0055279694 -0.023859015 0.01217134 0.039000355 -0.0032359532 0.05659333 0.053391736
-0.092539385 -0.2842728 0.3162454 -0.30896044 -0.27988148 0.18913257 0.14225855 -0.25867683
-0.04983361 -0.08463395 0.10685142 0.083130784 0.088232204 -0.026955081 0.017274393 -0.034164343
-0.0034110285 -0.014978912 -0.005380141 0.03128624 0.03537214 0.014642989 -0.013825273 0.03306243
-0.049865253 -0.0116159525 0.0019327599 0.055377033 0.009544314 0.044876404 0.01538441 -0.034944795
-0.05399741 0.02745302 0.07002284 0.05008832 0.009275459 -0.008270536 0.04129037 -0.034380663
-0.013557831 -0.008241559 0.00060526625 -0.06511961 0.08164575 -0.023614276 -0.022467965 0.01746171

convs.0.att_j f4 [1, 8, 8]
00000000: c5d3 9a3d 760d 333c 0990 853d 3aa2 80be
00000010: a4e1 cb3c 7ccd 3cbe 81ff 35be 32c7 233e
00000020: 8a55 17be 40d1 70bd 5b8b 99be b118 4b3e
00000030: 9109 9a3e 5b31 fa3b 6a1f 9c3e e1b2 803e
00000040: d9bf 39be abf1 25c0 9547 2940 ca9f 43c0
00000050: 3ba7 3cc0 12fa 0340 664b 0640 45d4 31c0
00000060: 782d e2be 70e2 ffbe 1cdf 053f 9877 273f
00000070: e15a d53e fb9c 143e 595b 8bbd dccc 69be
00000080: c839 ea3d 20b0 acbc 3691 7bbd b841 533e
00000090: 3fdd 2c3e 2a8e 423d 85ed a53a 202b 253e
000000a0: 8472 c5be d331 74be 81ee bdbc 0333 be3e
000000b0: cbab dd3d 1b42 933e 0dff bb3d 4db8 9cbe
000000c0: 525c b4be 0633 383e 222f b73e d578 f03d
000000d0: c2a0 f7bc b3d8 de3d 7a11 9d3d 8c77 07be
000000e0: 22ab 0dbe 6b55 f6bd 00e1 c43d a56c 0dbf
000000f0: 0c2f 1b3f 9e93 88be 34f5 6fbe 1a88 5abd
0.07559923 0.010928502 0.06521613 -0.2512377 0.024887867 -0.18437761 -0.17773248 0.15993956
-0.14778724 -0.058793306 -0.29989132 0.19833638 0.30085424 0.007635278 0.30492717 0.25136474
-0.1813959 -2.5928752 2.644994 -3.0566278 -2.947707 2.062138 2.098352 -2.778581
-0.44175315 -0.49977446 0.5229356 0.6541686 0.41670898 0.14513008 -0.068045326 -0.22832054
0.11436802 -0.021080077 -0.06141778 0.20630538 0.16881274 0.04749886 0.0012659287 0.16129732
-0.3856393 -0.23847131 -0.023185017 0.37148294 0.108237825 0.28761372 0.091795065 -0.3060936
-0.35226685 0.17988214 0.35778147 0.11741797 -0.030228022 0.10881176 0.07669349 -0.13229197
-0.13834813 -0.12028011 0.09613228 -0.55243903 0.6061866 -0.26675123 -0.23433381 -0.053352453

convs.0.bias f4 [64]
00000000: c505 cbbb a00c be3b 84b1 7ab9 12a3 753b
00000010: 7067 8238 203a 1dbb e833 233a 3fb2 43bb
00000020: 513a 88ba db71 5c3b b6f2 da3b dfba bd3b
00000030: 8a94 d73b 20ee bf3a e99a e73b 21c3 d8bb
00000040: 3958 b2bb 5115 1cbc 5db0 8e3a 7f1a e038
00000050: ba8d f33b fb2f 6c3b 7852 213c baec a53b
00000060: 08d9 18bc 8dfb 963b abec 1cbc 27b6 323c
00000070: 4da3 f03a 4bb3 fa39 031c 18bb 2f26 1eba
00000080: 8228 bdba 5403 b0bb 78e3 4dbc 2b7e 0ebb
00000090: 24f0 04bb 3188 793b d136 273c 1690 aa3b
000000a0: 6568 823b cc55 343c 820c 48bb fe1e 05bc
000000b0: e47d a23c adb1 713b 36f0 33bc 66aa d639
000000c0: 9521 ac3a 81a0 35bc ba85 a0bb e704 be3b
000000d0: 061b df3b a6c1 a9ba d329 ef3b 85d6 0fb8
000000e0: 04b7 b13b 7164 303b ff6b 313c bf8b c4ba
000000f0: 6b9f f938 fd31 78bb 01fe 303c 3d78 c2ba
-0.006195756 0.005799845 -0.00023907988 0.003748123 6.21815e-05 -0.0023990944 0.0006225691 -0.0029860882
-0.0010393356 0.00336372 0.0066817654 0.005790099 0.0065789865 0.001464311 0.0070680273 -0.006615058
-0.005442646 -0.009526567 0.0010886301 0.000106860876 0.0074326666 0.003603934 0.009846322 0.0050636204
-0.009329088 0.004607624 -0.00957791 0.010907686 0.0018359214 0.000478173 -0.0023210056 -0.00060329115
-0.0014431628 -0.0053714905 -0.01256644 -0.0021742682 -0.0020284737 0.0038075561 0.01020594 0.0052051647
0.00397973 0.011006784 -0.0030525033 -0.008125065 0.01983542 0.0036879585 -0.010982564 0.00040944217
0.0013132567 -0.01108563 -0.004898754 0.0057989242 0.0068086414 -0.0012951388 0.007298687 -3.4293644e-05
0.0054234285 0.0026915336 0.010828971 -0.0014995261 0.00011902939 -0.0037871592 0.010802747 -0.0014836859

convs.0.lin.weight f4 [64, 745]
00000000: aea5 8cbd 63af a139 b1a5 813c a0bc bbbd
00000010: 2b70 f7bd 9239 0a3c bdb0 e63d 43d5 3fbb
00000020: b2db 1a3b e9ac 74bd d823 abbd 650f 5b3c
00000030: 9e81 733d c16d 233d 587d ee3d 0297 853c
00000040: bc08 d43c df2c 9a3d de1a 413d 7ea2 6dbd
00000050: dc32 933d 0794 de38 4b00 b73c 6458 9d3d
00000060: d2fa 08bd e37e 453d 5419 febc a8bf 77bd
00000070: 4197 da3c 988d 0eb9 b77e 0dbd 2c28 c33c
00000080: b293 0fbb 22a8 2abd 207d e9bc 4a93 d93c
00000090: 7449 053d dac7 b33b 5f85 273c d9b6 d23b
000000a0: dcac ebba d5c3 9d3c 207c d63c 0fc6 07bd
000000b0: fea1 fc3d ba6f cdbc 22db 4cbc b881 0e3d
000000c0: 7f2a 67bd 3b59 f43d 960f ab3d 59a7 97bb
000000d0: 3f05 99bd f846 6e3c d72e 3fbc ff91 05bd
000000e0: 6f1c 28bd b064 a03d 68a7 e83b 9234 ff3d
000000f0: 7f22 e3bc ca8e b53b 7623 aa3c 1259 10bc
00000100: a459 40bd 658f cabc 7fb6 26bd 0c2a 65bc
00000110: 9dbf 073e e5c8 bfbd e904 ecbd cb2e 72bd
00000120: 4d30 983d 836e 38ba 4e33 c33d f565 4e3c
00000130: e4ee 02bd f937 053e d212 9c3b fa2b 33bd
00000140: ebf5 7fbc 9aa7 3c3d b9b7 6e3d 8296 a23d
00000150: 7b2c d0bc a873 19bd 1f2e 443b 43fc 8ebd
00000160: 0b2b 8bbc 1cb3 993b fe4a e03c e5d8 90bd
00000170: 29d9 b0bd 1485 00bd c4b8 cbbd 06a1 05be
00000180: 1529 5fbd 6f8f 64bd 4c6d 90bc 882a 993c
00000190: 6566 683d 43e7 d83c fe60 7ebd 66ef 8a38
000001a0: cd6f 55bc 2b77 b63b 63e5 e7bc b273 b2bd
000001b0: fb4f 37bd 59fa 76bc c154 8ebd ecbd 2ebd
000001c0: 80a7 45bd 327e 8fbd 8332 143e d42e 9abc
000001d0: 7ff2 c9bd 32b2 ce3b 2e03 e4bd ffc5 633c
000001e0: 5a52 16bd d9e1 793c 2b41 103b 1fb6 02bd
000001f0: 7744 6f3b b78d 04be e990 03bd f6af 55bc
00000200: 83bc 833c 0589 4bbc acb0 163d 1165 b63c
00000210: c164 7ebc 20c5 323d 5aa2 d53d 1357 a73d
00000220: 8327 923d 3719 7bbd 9e23 78bd f445 9b3d
00000230: 7aaf 883d 48d4 c53d 19cc 413c 9e8f 92bc
00000240: 6f92 153e 152e efbb 4729 df3b c411 93bc
00000250: 0725 c53c 5413 71bd c8af e93d c6bc 2a3d
00000260: e75b c3bd 9727 39bd 7461 783b 29a4 103c
00000270: 5702 b63b cbf0 bb3d 24a4 10bd 42b2 673d
00000280: 400d ddbb b9d9 aa3c 937a 943c 948b 133c
00000290: ff39 d8bc b05b a33c 3581 52bc 607e abbc
000002a0: 7802 06bd 7661 883d dada 033d 8416 153c
000002b0: 06bc 6dbd a281 18bd f008 6a3d e9c1 a83c
000002c0: 4944 c73c 6112 bbbc 3287 333d 26a0 b5bd
000002d0: 8c25 c9bd 67f7 0fbc 328a dbbd 7a96 8dbd
000002e0: fa3e 85bd f7a8 7d3c b7a5 9d3c edb9 4abd
000002f0: 59e8 02bc cac3 f4bc 1752 073c f4c4 89bd
00000300: e53e b53c c453 c3bc fd81 8f3c 1ab0 20bb
00000310: 2d20 0d3c 5677 d2bc 8cc0 1bbb 9b9e 0b3d
00000320: 92a1 51bb ed51 5a3c 78bf edbc 66df 113b
00000330: d5d5 843d 638d 85bd 39c9 1d3d 232f b23d
00000340: b008 fbbb 6e61 043c 403a d93c f8d9 74bd
00000350: a443 823d 9f65 8e3d 9f28 ab3c ccd4 483e
00000360: a618 f0bd c772 bb3c adf6 d0bc 8c73 27bd
00000370: f2f2 deb9 09ec d83c 89cd a93c f46a 09bb
00000380: df08 1ebd 89d6 f23b 29ed 09bd ea14 c83c
00000390: 81bf ff3b 0455 fd3c 55e7 c5bd b6d8 4a3c
000003a0: ce9c b7bc f264 d63b 426a 80bd d3c0 0f3d
000003b0: 7ad2 5d3b 9c8e e5bc 6288 d33d 3179 453e
000003c0: 07d3 3abc 57fe 9bbc c532 383d b135 8e3b
000003d0: fc7d 9a3e c76c 2ebd 1b56 8d3c 92e9 d4bc
000003e0: ea79 05be b74b babd 6bf0 5e3d 9a93 1ebd
000003f0: 9146 91bd 62a8 5a3c ef40 e03c f462 2fbd
-0.068675384 0.00030838986 0.015826078 -0.09166837 -0.12081941 0.008436577 0.11264179 -0.00292714
0.0023629484 -0.059735212 -0.08356446 0.01337037 0.059449784 0.03989959 0.11645001 0.016307358
0.025883071 0.0752809 0.047144763 -0.058016293 0.07187435 0.00010613357 0.022339007 0.07682875
-0.033442326 0.04821671 -0.031017937 -0.060485512 0.026683452 -0.00013594923 -0.034544673 0.023822866
-0.0021908102 -0.04166425 -0.028502047 0.02655949 0.032540753 0.0054864706 0.010224669 0.0064304885
-0.0017980593 0.019258419 0.026182234 -0.033147868 0.12335585 -0.02507769 -0.012503417 0.03479168
-0.05643701 0.11931082 0.08352582 -0.0046281037 -0.07471704 0.014543287 -0.011668882 -0.032609936
-0.04104274 0.078317046 0.0071000345 0.12461199 -0.02772641 0.0055407034 0.020768862 -0.0088102985
-0.046960488 -0.024726579 -0.040701386 -0.013987076 0.13256688 -0.093644895 -0.11524374 -0.059126657
0.07431088 -0.00070355105 0.0953127 0.012597551 -0.031966105 0.13009633 0.0047629857 -0.04374311
-0.015622596 0.046058275 0.05828068 0.07938863 -0.025411835 -0.037463814 0.0029934717 -0.06981709
-0.016988298 0.004690541 0.027379509 -0.07072619 -0.0863517 -0.031376913 -0.099473506 -0.13049707
-0.05448254 -0.05580085 -0.017630242 0.018697038 0.056738276 0.026477462 -0.062104218 6.624944e-05
-0.013027144 0.005568405 -0.028307622 -0.087134734 -0.04475401 -0.015074336 -0.06949759 -0.042661592
-0.048255444 -0.07006492 0.14472394 -0.018821158 -0.098607056 0.0063078636 -0.11133419 0.013902186
-0.03669963 0.0152516 0.00220115 -0.031911965 0.0036509314 -0.12944685 -0.03212062 -0.013042441
0.0160811 -0.012422805 0.03678958 0.02226499 -0.015526951 0.043645024 0.10431357 0.08170905
0.071364425 -0.061303344 -0.060580842 0.07581702 0.066740945 0.0965963 0.011828446 -0.017890748
0.14606641 -0.0072991946 0.0068103406 -0.017952807 0.024065508 -0.058856323 0.11410481 0.041683935
-0.09539013 -0.04520377 0.0037899883 0.008828201 0.005554478 0.09176787 -0.035312787 0.056566484
-0.0067459643 0.020855771 0.018124854 0.009005446 -0.026394842 0.019941181 -0.012848188 -0.020934284
-0.032717198 0.06659214 0.032191135 0.009099606 -0.05804064 -0.037233002 0.05713743 0.020600276
0.024324553 -0.022835912 0.043830104 -0.088684365 -0.098216146 -0.008787013 -0.10719718 -0.06913467
-0.065061525 0.015482179 0.019244058 -0.04949372 -0.007989966 -0.029878516 0.008259318 -0.06727019
0.022124717 -0.023843654 0.017518038 -0.0024519027 0.008613628 -0.02569167 -0.002376589 0.034086805
-0.0031987173 0.013325197 -0.029021963 0.00222584 0.06486098 -0.06521108 0.03852198 0.08700397
-0.0076609477 0.00807987 0.026517034 -0.059778184 0.06360558 0.069529764 0.020893393 0.19612426
-0.11723451 0.022881879 -0.02550825 -0.04088168 -0.00042524148 0.026479738 0.02072789 -0.002096829
-0.03858268 0.0074108285 -0.03367344 0.024424035 0.0078048115 0.030924328 -0.09663264 0.0123807695
-0.022413637 0.0065427953 -0.06270267 0.035096 0.0033847378 -0.028022103 0.10328747 0.19284512
-0.011402852 -0.019042177 0.044970293 0.0043398966 0.30174243 -0.042584207 0.017252972 -0.025990281
-0.13034788 -0.09096473 0.0544285 -0.038714983 -0.070935376 0.01334581 0.027374713 -0.04281898

convs.1.att_i f4 [1, 1, 8]
00000000: 98d3 53be 8517 6a3f 6656 223f 62ce f23e
00000010: 1652 973f 766c a4be 7fe4 d6be 4be0 3abf
-0.20686185 0.9144214 0.63413084 0.47423083 1.1821926 -0.32114 -0.41971204 -0.72998494

convs.1.att_j f4 [1, 1, 8]
00000000: 6fc0 34be c920 61bd f959 c3bc 25fd 8fbd
00000010: 2002 20be fbb8 66be 5fe8 7dbe fc3d 22be
-0.17651533 -0.054962907 -0.023846613 -0.07030705 -0.1562581 -0.22531502 -0.24795674 -0.15843958

convs.1.bias f4 [8]
00000000: ae64 8dbf 422a 743f 337a b7be 0b2c ed3d
00000010: 5461 d1bc 88b5 243e 450c 983e a46f 51bf
-1.104635 0.9537698 -0.35835418 0.11580666 -0.025559105 0.16084874 0.2969686 -0.81810975

convs.1.lin.weight f4 [8, 64]
00000000: a4e9 3040 f6b2 adc0 a4d6 8440 0f83 acc0
00000010: 0e28 9c40 eab3 8e40 adfe 9dc0 9dc5 8ac0
00000020: 2063 c63f 3de8 8dc0 4dbc 03c0 ae40 76c0
00000030: 6834 243f cab2 9540 6cb7 a140 cf75 a440
00000040: 10fe 96c0 3fbf 37c0 6f1f d1bf a86f b1c0
00000050: be5c a1c0 4899 48c0 57fd b8bf c0a4 37c0
00000060: 2f21 9e40 9f3f 9740 3630 a5c0 466c 96c0
00000070: 6640 f9bf 237f b0bf c826 a040 d31e 6440
00000080: 6299 8ec0 47eb 8840 a681 c140 b094 8440
00000090: dca9 82c0 3502 8640 9695 6bbf ec78 963f
000000a0: ed1b 9ec0 ec88 2cc0 f501 90c0 5a5c aa40
000000b0: 675c 7740 be78 9a40 b31f be3f ebdd a4c0
000000c0: 2855 9540 9d62 28c0 25be 96c0 9587 94c0
000000d0: 9dc0 7440 7c4a bb40 976c e03e 8843 7a40
000000e0: 0e92 7940 fc99 afc0 7ab8 81c0 69ed 5f40
000000f0: a8cb 60c0 a5fd df3f 25ae 74c0 81d3 9740
00000100: 838d 22c0 1c83 aebf cb84 953f f0c6 9b40
00000110: 1fdd b8c0 ce5b 9e40 13d2 6e40 554b 9ec0
00000120: 5541 ef3f 2eff 9ec0 a009 b83f 01b5 93c0
00000130: c5d3 8dc0 b18a 91c0 56d4 4940 1421 1e40
00000140: abc3 84c0 b75b 9140 6d84 a4c0 2d83 b540
00000150: 2eaa 22c0 b210 b1c0 ef96 99c0 a507 d53f
00000160: 13ac 2040 0a76 6540 b806 85c0 3304 93c0
00000170: 1a9c 3240 5b01 81bf 0e4d acc0 3b6a 7e40
00000180: 3688 5ec0 7646 5340 6367 bbc0 589e 72c0
00000190: 35e5 aac0 95ac ae40 cb9f 6cbf 1348 fabf
000001a0: ba85 a940 8a04 1a40 189f 95c0 aa1b cfc0
000001b0: cd56 b140 ca63 9fc0 7d51 2abf 279e 7940
000001c0: b199 1f40 483b 27c0 7f62 8cc0 f7d6 9bc0
000001d0: f086 03c0 e199 52c0 60ea a0bc f1bd 6640
000001e0: a01c 5640 78fb a240 a868 2840 ffe3 9140
000001f0: 69b8 99c0 c163 9abf 92c6 8ec0 16c6 2740
00000200: d2e5 e0bf d5d1 97c0 0638 64c0 2751 8ac0
00000210: e241 9040 bb30 c8c0 f705 8540 1c31 a9c0
00000220: cf2e 69c0 2608 a940 812f 7bc0 fb9c b340
00000230: c8b2 9d40 03a6 9d40 8968 9d40 c99f 9740
00000240: b088 9f40 aa99 a340 a80f e8c0 f8b2 9540
00000250: 3d73 a740 a136 ae3f f73d 36be 9f29 5940
00000260: 835f 4f40 f3c6 9bc0 6c95 8940 d4c5 d640
00000270: 0480 febf 741c 84c0 ad77 ab40 72a5 8040
00000280: 88b3 9b40 722e 0f40 7b93 a740 8ea5 79c0
00000290: be62 b8c0 5c22 71c0 3f30 3f40 1877 87c0
000002a0: ddcf 85c0 bca0 8cc0 3345 b440 488c 9740
000002b0: 3d27 4ac0 5451 0c40 b57b f7bf 99bf 97c0
000002c0: 5e9d b5c0 806a 91c0 2dfa 8e40 1742 97c0
000002d0: 9820 1fc0 beac 86bf 22c0 dcbf 3660 97c0
000002e0: 8592 a5c0 37d1 54c0 1ce2 81c0 d6ea 94c0
000002f0: 0779 a640 2016 8240 5553 7e40 dc3a 8b40
00000300: 4491 c1be 8dc3 9bc0 87ca b7c0 2310 c3c0
00000310: ea22 8dc0 90b4 afc0 c1a3 57c0 acd0 bd40
00000320: 0512 a5c0 014d 98c0 8366 86c0 ddf6 ad40
00000330: 86b0 aa40 4b95 87c0 a4b0 9240 2d93 9a40
00000340: feb5 b2c0 8824 6840 d1fd 67c0 9bab a8c0
00000350: 676e a740 7ee6 5340 5765 99bf f305 6c3f
00000360: 51c0 bf40 e212 9d40 115b a6c0 34f0 26c0
00000370: 49b7 c3c0 0d66 a640 fff8 72c0 2232 16c0
00000380: 220b 89c0 5f0c 7abf 8b63 c540 ad81 59c0
00000390: 34f2 56c0 1dbd a0c0 920b f63f ce34 6cc0
000003a0: 4b70 8540 3302 8440 5fd3 9340 4552 1fc0
000003b0: 8830 b6c0 9331 39c0 4572 31c0 111e 313f
000003c0: a1ce cc40 8f18 8ac0 5a77 c2c0 6de6 5fbf
000003d0: a1c7 6e3f 3d61 9ac0 c01c 17c0 a434 8c40
000003e0: fbd1 b040 fbb9 d6c0 b6df cebd 2fc5 b3c0
000003f0: 6117 af40 342b 9ac0 e8be 79c0 9319 af40
2.7642603 -5.428096 4.1512012 -5.3909984 4.8798895 4.459462 -4.9373384 -4.3366227
1.5499 -4.4345994 -2.058368 -3.8476977 0.64142466 4.678075 5.0536404 5.139381
-4.7185135 -2.8710477 -1.6337718 -5.54488 -5.042571 -3.1343555 -1.4452313 -2.8694305
4.9415507 4.7265162 -5.162135 -4.700717 -1.9472778 -1.3788799 5.004734 3.5643814
-4.4562235 4.2787204 6.047076 4.1431503 -4.083235 4.1877694 -0.92025125 1.1755652
-4.940909 -2.695857 -4.500239 5.3237734 3.8650148 4.827239 1.4853424 -5.1520896
4.666645 -2.6310189 -4.710711 -4.6415505 3.8242562 5.8528423 0.43832847 3.9103718
3.8995395 -5.487547 -4.053769 3.4988654 -3.5124302 1.7499281 -3.823129 4.7445683
-2.5398872 -1.3633761 1.168115 4.8680344 -5.7769923 4.9487066 3.731572 -4.946696
1.8691813 -4.96865 1.4377937 -4.615845 -4.432101 -4.54818 3.153585 2.470769
-4.1488853 4.5424457 -5.1411653 5.6722627 -2.541637 -5.533288 -4.7996745 1.6642958
2.5105026 3.5853295 -4.15707 -4.5942626 2.7907777 -1.0078539 -5.384406 3.9752338
-3.4770637 3.3011756 -5.8563704 -3.7909145 -5.3404794 5.458567 -0.92431325 -1.9553245
5.297574 2.406527 -4.6756706 -6.472127 5.541846 -4.9809313 -0.6653059 3.9002779
2.4937556 -2.6129932 -4.3870234 -4.869991 -2.055111 -3.290642 -0.019643009 3.605343
3.3454971 5.093197 2.6313877 4.5590816 -4.803761 -1.2061692 -4.4617395 2.6214652
-1.7570136 -4.7443643 -3.5659194 -4.3224063 4.5080423 -6.2559485 4.156978 -5.287245
-3.643482 5.2822447 -3.9247744 5.6129127 4.928074 4.926515 4.9190106 4.738255
4.9854355 5.112508 -7.251911 4.678097 5.232817 1.3610421 -0.17797075 3.3931653
3.2402046 -4.868036 4.29949 6.711649 -1.9882817 -4.1284733 5.358359 4.020196
4.8656654 2.2372098 5.236753 -3.9007297 -5.7620535 -3.7677221 2.9873197 -4.233288
-4.181624 -4.394621 5.633447 4.735874 -3.158645 2.1924639 -1.9334627 -4.7421384
-5.67546 -4.5442505 4.468039 -4.7268176 -2.4863644 -1.0521467 -1.7246134 -4.7304945
-5.1741357 -3.3252695 -4.0588512 -4.6536665 5.202274 4.065201 3.9738362 4.350935
-0.3780614 -4.867621 -5.7434726 -6.09572 -4.410512 -5.4907913 -3.3693697 5.9317226
-5.1584496 -4.7594 -4.2000136 5.4363847 5.3340483 -4.2369742 4.5840626 4.830466
-5.584716 3.6272297 -3.6248667 -5.270948 5.232227 3.3109431 -1.1984051 0.9219658
5.992226 4.908555 -5.1986165 -2.6084108 -6.1161237 5.1999574 -3.7964475 -2.3468099
-4.282609 -0.97675127 6.1684012 -3.3985398 -3.358533 -5.023085 1.9222281 -3.690723
4.1699576 4.1252685 4.619552 -2.4893963 -5.693424 -2.8936508 -2.7725995 0.691865
6.4002233 -4.315498 -6.0770693 -0.87460977 0.9327336 -4.82437 -2.3611298 4.381426
5.5256324 -6.7102027 -0.10101263 -5.6178203 5.471604 -4.817774 -3.902277 5.471872
