neuroc_pygs/sec6_cutting/out_cutting_method_res/gat_pubmed_best_model.pth (torch_old, 131025 bytes, 8 tensors)

convs.0.att_i f4 [1, 8, 8]
000000 23 47 ae 3c f8 23 82 bc 5a 93 09 bd a1 54 e8 3c
       0.021274155 -0.015886292 -0.03358779 0.028360667
000010 a8 8a 22 3d a1 96 ee 3c ce ab d8 bc 6f 04 f6 bc
       0.039683014 0.02912456 -0.02644911 -0.030031411
000020 32 65 56 3c ab b0 64 bc 2f f0 a3 bc 3a 04 8c bc
       0.01308565 -0.013958137 -0.02001199 -0.01709186
000030 fa 09 f0 3b bd 61 64 bc 31 80 51 bc 68 be 8c 3c
       0.007325408 -0.013939318 -0.012786911 0.017180637
000040 dd 9d ca bc 7b 24 e3 3b 4b 4f 13 3c 08 0e 03 3d
       -0.024733478 0.006931839 0.008991073 0.031995803
000050 96 17 ed bc b6 1a fb bc ba 47 a6 bb 34 fc 15 bd
       -0.02894191 -0.030652385 -0.0050744684 -0.036617473
000060 79 88 88 bc 68 ec 07 3d e3 b1 cc 3c 7e bd c6 3c
       -0.016666638 0.03318444 0.024987167 0.024260279
000070 9b 30 fd bc cc 93 34 3c a7 0b ff 3c 67 04 ed 3c
       -0.030906966 0.011021566 0.031133486 0.028932763
000080 57 92 ed bc cc ae 83 bc da 52 a3 3c f4 0b eb bc
       -0.029000444 -0.01607456 0.019936968 -0.028692223
000090 6c 02 b8 3c df dd 30 bb f4 e8 c8 3c eb ff fc 3b
       0.022462092 -0.0026987714 0.024525143 0.0077209375
0000a0 e9 23 0f bb 25 96 ec bc ef 80 08 3d d0 7e 81 ba
       -0.0021841472 -0.028880188 0.033326086 -0.0009879712
0000b0 32 39 45 3b 04 8e 0e 3d 13 38 fb bc 56 09 20 3d
       0.0030093906 0.034803405 -0.030666387 0.039071403
0000c0 1c 8c eb bb 24 bb 8d bb 75 ba b5 3b ef 96 e1 3c
       -0.007188333 -0.0043252874 0.005545909 0.027537791
0000d0 09 2f c6 bc ea 06 d2 bc aa c5 b9 3c 30 c6 bb bc
       -0.02419235 -0.025638063 0.022677261 -0.022921652
0000e0 01 a6 16 3d 78 af 13 3d 26 41 86 bc 9f 8f 1a 3d
       0.036779407 0.036056012 -0.016388487 0.037734624
0000f0 a1 bd 10 bd f5 ed e5 3c 2f 7c 41 bc 8b e7 08 bd
       -0.035337094 0.028067568 -0.011809393 -0.03342394

convs.0.att_j f4 [1, 8, 8]
000000 d4 c2 dd 3d 17 02 40 ba f9 87 d2 bd 71 cf fe 3d
       0.10828176 -0.000732453 -0.10279841 0.1244191
000010 26 7c 0f 3e 7b d4 f8 3d 30 f7 dd bd 21 9a b8 bd
       0.14012203 0.121499024 -0.10838163 -0.09013773
000020 3c 61 b2 3c a3 dd 1e bc 99 b9 9d bc 70 de a5 bc
       0.02177488 -0.009696397 -0.019253539 -0.020247668
000030 63 30 84 3b 4d 37 4d bc aa b5 7c 3a f4 f2 81 3c
       0.0040340885 -0.012525392 0.0009640107 0.01586292
000040 41 6b a8 bd bb 92 07 3a 50 bf c9 bb 8d 4c de 3d
       -0.08223582 0.0005171706 -0.0061568394 0.10854445
000050 b7 bf da bd bb 64 d5 bd d1 3b 40 3c b7 d3 fc bd
       -0.10681098 -0.104196034 0.011733011 -0.12345069
000060 01 d9 a7 bd 02 4f af 3d 1e 72 9a 3d f1 a3 a1 bc
       -0.08195687 0.085599914 0.075412974 -0.019731494
000070 b1 bb 9b bd 4e 00 30 3b 80 63 ae 3d ae ef a5 3d
       -0.07604159 0.002685565 0.08515072 0.08102356
000080 0e 2b c7 bd 96 92 d1 3c 1a ce 85 3d 78 cd c2 bd
       -0.09725009 0.025582593 0.065334514 -0.09511846
000090 84 e5 87 3d 56 27 be 3c a6 48 ac 3d 55 28 70 bc
       0.066355735 0.023212116 0.08412294 -0.014658053
0000a0 18 07 f3 3b d5 f5 b8 bd 39 7f dc 3d 29 f7 c4 3c
       0.007416617 -0.09031264 0.10766453 0.024043636
0000b0 d5 e0 71 bc b8 95 e0 3d b8 1e d9 bd dc c1 07 3e
       -0.014763077 0.109660566 -0.10601562 0.13257545
0000c0 ed 18 62 3c b5 c0 c9 3c 76 6b a4 bc 15 73 fa 3d
       0.013799888 0.024628023 -0.020070773 0.122289814
0000d0 ec 14 b1 bd 7b 74 a5 bd e4 59 a2 3d 2c 33 d6 bd
       -0.08646569 -0.080788575 0.079273015 -0.10458979
0000e0 0a ac 0e 3e 71 4a 10 3e 9b 72 b5 3c 69 54 0b 3e
       0.13932815 0.14090897 0.022149375 0.13606419
0000f0 f3 b3 0a be 88 9f 00 3e 60 b0 24 3c a2 6b 05 be
       -0.13545208 0.12560856 0.010051817 -0.1302934

convs.0.bias f4 [64]
000000 93 d9 87 3c 94 62 5f bb 49 d0 62 3b e9 8f 26 3c
       0.01658324 -0.0034085857 0.003460901 0.010166147
000010 ab 73 fb 3b 6b 8e ed 3b 15 37 8e b6 05 90 f3 3b
       0.007673701 0.0072496436 -4.238342e-06 0.00743294
000020 5a 0a 1a bb 8f d6 8d bb e8 65 16 bb 3e b1 6f bb
       -0.0023504705 -0.004328556 -0.0022948924 -0.003657415
000030 2b 9b 13 bc 89 a7 d2 bb 53 2a f4 3b 25 62 70 bb
       -0.009009163 -0.006428663 0.0074513345 -0.0036679592
000040 98 5c 13 3c 78 97 14 3c be 7e d6 3b 2c 43 c8 3b
       0.008994244 0.009069316 0.0065458706 0.006111523
000050 a4 bd 31 bb 3f 4f a8 bb 42 1e 74 bb 68 dc 0f bb
       -0.0027121091 -0.0051364 -0.003724948 -0.002195144
000060 33 1e 53 bc 0d f5 20 bb be c3 a7 bb 7e 18 13 3b
       -0.012885618 -0.0024560124 -0.00511977 0.0022445018
000070 e1 7c 19 3b e7 02 d6 39 b5 96 a3 bb f2 d2 17 3b
       0.002342038 0.00040819423 -0.004992331 0.0023166505
000080 e3 70 94 bb 85 45 96 3b c6 d6 17 bb 9d 04 1f 38
       -0.0045300587 0.004585924 -0.0023168786 3.791285e-05
000090 c2 2a ab ba 09 1b ba ba da 98 b4 3b 1e 5d 15 3c
       -0.0013059007 -0.0014198731 0.0055113854 0.009116439
0000a0 d7 60 aa bb d0 e0 07 3c 50 87 c8 3b 24 e3 d2 bb
       -0.0051995325 0.008293346 0.006119646 -0.0064357687
0000b0 da 50 a1 3b eb 1e 9f 3b 03 58 14 bc ef df 4c 3b
       0.0049229683 0.0048559806 -0.009054187 0.0031261405
0000c0 e6 71 ae bb 87 ea f8 39 c8 db d3 3a 66 ca d2 3b
       -0.0053236363 0.00047476983 0.0016163522 0.006432819
0000d0 6f 70 e5 3b 5a eb d4 3b 6c 56 00 bb 10 be df bb
       0.0070019285 0.0064977827 -0.0019582761 -0.006828077
0000e0 71 0a 2d 3c e5 ae e5 3b 88 a8 af ba 37 a3 29 3b
       0.010561571 0.0070093744 -0.0013401667 0.0025884637
0000f0 1a 61 f8 3a d1 02 cf 3b 3b 6c 6f bb 1d 54 f5 bb
       0.0018949837 0.0063174744 -0.0036533016 -0.0074868337

convs.0.lin.weight f4 [64, 500]
000000 00 fd b3 3d 19 07 8d bd 48 1a 6e ba 6f db ae 3c
       0.0878849 -0.068861194 -0.00090828957 0.021344868
000010 b3 b7 d9 bc 13 2a ef 3c 7f 4e cc 3d f3 ea f9 bc
       -0.026576852 0.029194867 0.099759094 -0.03050754
000020 98 b6 40 3e 62 b3 d8 bc 21 59 bf bc fa 16 99 3d
       0.18819654 -0.026452724 -0.02335793 0.074750856
000030 f8 41 3b 3d 6e da a5 3d aa 61 9e 3a 7f 42 50 3d
       0.04571721 0.08098303 0.001208355 0.050844666
000040 c7 81 b3 be e6 a2 37 3d 82 24 d5 3c c7 5f 8a 3d
       -0.3505995 0.044833086 0.026018385 0.06756549
000050 45 d1 b3 bc d1 cf 02 3e 68 79 fe bc b2 35 19 3e
       -0.021950373 0.12774588 -0.03106375 0.1496189
000060 9b 9f be 3d 39 83 a6 3d 79 31 19 bd 60 3c 95 bc
       0.09307786 0.081304975 -0.037400696 -0.018217266
000070 5d f7 25 bd d5 e1 a6 bc 42 d9 d1 3a ee e7 93 3c
       -0.040519107 -0.020371357 0.0016010182 0.018054929
000080 1d aa 46 3d e9 98 27 3d 9d 92 8a 3b 19 6d 2f 3d
       0.048502076 0.04091731 0.0042289034 0.042828653
000090 e5 28 a9 bc 15 02 4e bc 1a 6d 66 3d 26 91 03 3e
       -0.020649383 -0.012573739 0.05625639 0.12848338
0000a0 84 e5 02 3d 21 88 1c 3c 6a c4 6e 3d 23 84 22 3d
       0.031957164 0.00955394 0.058292784 0.039676797
0000b0 20 4f 8c bd 88 cf 17 bc 1f 1e 97 bc f2 5d 1b bd
       -0.068510294 -0.009265788 -0.01844698 -0.03793139
0000c0 e8 84 28 3d 32 61 c6 bc 69 d8 c4 bc 07 78 40 bc
       0.041142374 -0.024216268 -0.024028974 -0.011747367
0000d0 0e f3 e6 bb d6 f6 d9 3d 83 5b 1c 3d 85 d3 7c 3d
       -0.0070480173 0.10642783 0.03817321 0.06172516
0000e0 8f 93 ad 3c 11 ec e3 bc 1a 9e a9 bd 90 56 a8 3c
       0.021188525 -0.027822526 -0.082821086 0.020549089
0000f0 58 72 4a 3d cb 34 5a 3d 41 8d ce 3b 42 8b cc 3c
       0.049425453 0.053273004 0.00630346 0.024968747
000100 a9 d4 1c 3d db cc 45 b8 a1 3d 72 3d 22 19 01 bc
       0.038288746 -4.7159247e-05 0.059140805 -0.007879527
000110 11 52 0c bd 16 b8 27 be d3 b8 c6 bd e0 b7 6d bc
       -0.034257952 -0.16378817 -0.09703221 -0.014509171
000120 da 05 00 3d 5e e7 8b bd b6 ab 67 3d e8 4f 4c 3d
       0.03125558 -0.06831239 0.05656024 0.049880892
000130 34 f2 89 3d 86 4c ad 3d 1d fc 1e 3c c6 7e 86 bc
       0.0673565 0.08461861 0.009703663 -0.016417872
000140 24 ed 0e 3c 39 d5 22 bc c9 63 91 3d 4b e2 5f 3d
       0.008723531 -0.009938532 0.07099111 0.05465917
000150 93 5a 06 bc fb 75 a1 bd 57 74 93 3d 12 eb e0 bd
       -0.0082003055 -0.07883831 0.071999244 -0.10982336
000160 13 30 4f bd e5 fd 00 be 9e 24 20 bb c4 d4 1a 3d
       -0.050582957 -0.12596853 -0.0024435888 0.037800565
000170 77 48 9f 3c 28 16 ff 3c 98 31 0c 3d c6 89 ef 3b
       0.019443734 0.031138495 0.034226984 0.007310125
000180 9d 7f fd 3c c0 27 3e 3d af 85 80 3d 6d a1 79 3d
       0.03094464 0.046424627 0.06275498 0.060944963
000190 56 39 82 3d 50 4f 7a bd 53 5e 81 3c af f9 b3 3c
       0.06358592 -0.061110795 0.015792048 0.021969644
0001a0 df 9e 86 3d 0a 79 2e 3d a4 5a 78 3c d0 6e 8f bc
       0.06573271 0.0425959 0.015158329 -0.017508894
0001b0 50 23 eb 3c cf 02 95 bc a2 0f 3e bd 6b 33 43 3d
       0.028703362 -0.018189816 -0.046401627 0.047656458
0001c0 ea 2c ce 3c dc 83 e9 3c 07 0b c8 3c 41 c8 72 3c
       0.025167901 0.028505258 0.02441932 0.014818252
0001d0 3e ce ba bb f2 0e 1e 3d bb 14 8d bd 8b f9 cc bc
       -0.0057008555 0.03858847 -0.0688872 -0.025021335
0001e0 33 8a 38 bd 4b 78 3e bd c3 3f c6 bb da 51 cf bd
       -0.045053672 -0.04650144 -0.0060500815 -0.10123034
0001f0 44 aa 07 bc c9 27 55 bd 04 9c 4d bd 70 4a 49 3c
       -0.008280341 -0.052039895 -0.050197616 0.012285814
000200 d4 28 17 3d bb 0e 24 bd be 92 4f bd cf 89 f5 3c
       0.03690417 -0.04005311 -0.050677054 0.029972939
000210 e2 63 58 bd 63 28 ed bb bd 37 ce bc a2 29 f9 3c
       -0.05282963 -0.0072374805 -0.025173062 0.03041536
000220 d7 17 a6 bd 43 c2 79 bd b4 0a b2 bb 0c 74 5d 3e
       -0.08110016 -0.060976278 -0.005433405 0.216263
000230 c6 74 25 3d 07 a5 bc 3d d3 16 24 bc 59 ff 07 bd
       0.040394567 0.09211164 -0.010015207 -0.033202503
000240 68 34 dc bc 80 0d 0f 3d 50 03 8f 3d 25 c1 09 bd
       -0.026880458 0.034924984 0.06983054 -0.033631463
000250 ea 41 e2 bd b3 aa 53 bd 1a f3 bf 3c 10 0d 27 bd
       -0.11047728 -0.051676463 0.02343135 -0.04078394
000260 db f2 81 bc 39 a3 43 3d 6c fd e5 3c 7f 7d 1c 3c
       -0.015862873 0.047763083 0.028074943 0.009551405
000270 f9 0a 3f 3d 1d c8 3c 3d cc cf 35 bb 3d 0e e5 3c
       0.046641324 0.04608928 -0.0027742265 0.02796089
000280 c2 51 ec bd ef 31 18 bc 2d 95 b1 3b aa 84 f9 3c
       -0.115390316 -0.009289249 0.0054193945 0.030458767
000290 48 97 97 3d 92 3a dd 3c f7 39 5a 3d c3 5a 9a bd
       0.074019015 0.027005468 0.053277936 -0.07536843
0002a0 28 76 eb 3c 9b e2 21 ba 61 16 87 3d 8d 83 2c bd
       0.028742865 -0.00061754294 0.06596065 -0.042117644
0002b0 d5 a9 84 3d 74 f2 f6 3c f7 cd 0d 3c 02 35 cc bd
       0.064777054 0.030144908 0.008655063 -0.09971048
0002c0 a7 3f bc 3a 07 8b fd bc 6e ff a3 3c 89 b6 e9 3c
       0.0014362232 -0.030950082 0.02001926 0.028529422
0002d0 0a 23 d5 bc df 7a 80 3b 8e 96 a8 bc 89 fb 4c 3b
       -0.026017684 0.0039208974 -0.020579603 0.0031277856
0002e0 36 b6 65 3e 92 06 c0 3d d2 4d 0b 3d 9c 07 1d ba
       0.22432789 0.09376253 0.034009762 -0.00059902086
0002f0 27 a2 0b 3d aa ee 87 bd b0 78 ba bc 6d 21 51 3c
       0.034090187 -0.066373184 -0.022762626 0.012764317
000300 03 4e e7 bc 62 8e 8d 3d ec 0d 00 3d e0 e6 ac bc
       -0.028235441 0.06911923 0.031263277 -0.021106184
000310 11 1f cb 3d f7 4d 39 bc 1e da e4 3c b3 aa 51 3d
       0.09918035 -0.011310092 0.027936038 0.051188182
000320 71 4c d9 3d 44 e2 53 bd 4c 72 0f 3d b1 71 13 bd
       0.10610283 -0.051729456 0.03502111 -0.035997096
000330 60 37 d6 3d 47 0f 5a bc 9b 3f d2 bd 6a 0d 19 bd
       0.10459781 -0.013309306 -0.10266038 -0.03736631
000340 48 04 19 bc 95 93 30 3c f8 40 fc 3b ce 5a f5 bd
       -0.0093394 0.010777374 0.0076981746 -0.1198021
000350 52 b9 1f be b4 c5 be bd 26 72 88 3d 4a 78 a3 39
       -0.15598038 -0.09315053 0.06662397 0.00031179405
000360 ca 66 c4 bb aa 46 bd bd b5 3f 9c bd 2e c9 95 bd
       -0.0059936987 -0.09241994 -0.07629339 -0.073137626
000370 ad 38 ce ba 03 89 85 bc c2 48 13 bd 2f 20 ab 3c
       -0.0015733443 -0.016300684 -0.03595806 0.02088937
000380 15 22 a4 bd 21 6d 8e bc 1a 99 3e bd 11 c4 c5 3b
       -0.08014313 -0.017386021 -0.046532728 0.006035336
000390 43 7f d9 3c 30 ab e5 bc c4 05 20 bd 12 d6 77 bd
       0.02654994 -0.02803573 -0.039068 -0.060506888
0003a0 60 5e 5d bd fa aa d8 3c 6f b6 4f 3c d5 23 55 be
       -0.05404508 0.026448715 0.012677773 -0.2081445
0003b0 b5 db 84 3c c8 5d 65 bd a7 2b 13 bd 9d a4 6f be
       0.016218046 -0.05599764 -0.035930302 -0.23402639
0003c0 f0 02 8e bb 82 76 ca 3c 78 6f 77 3b 52 07 fb bd
       -0.0043338463 0.024714712 0.003775565 -0.122572556
0003d0 0f 86 90 bd 51 61 8b bb 44 cb b8 bc aa b4 4f 3d
       -0.0705682 -0.0042535444 -0.022557862 0.050709404
0003e0 43 82 a2 b8 50 64 a1 bc ab 6a 03 3d 0c 59 fe bd
       -7.749025e-05 -0.019701153 0.03208415 -0.12419328
0003f0 f5 cf 2c 3d 80 44 37 be ff 69 3a 3d 66 d5 19 bd
       0.04219051 -0.17897224 0.045511242 -0.03755703

convs.1.att_i f4 [1, 1, 3]
000000 a0 52 fe be 90 43 6a bf ab c8 3a bf
       -0.49672413 -0.9150934 -0.72962445

convs.1.att_j f4 [1, 1, 3]
000000 75 95 28 bd ea c7 08 3e 90 23 69 3d
       -0.04115816 0.13357511 0.05691868

convs.1.bias f4 [3]
000000 9a 08 92 be 50 b2 9e 3e 8e 5e 6e 3e
       -0.28522187 0.30995417 0.23278257

convs.1.lin.weight f4 [3, 64]
000000 77 53 56 3f ba df 92 3f d6 21 8a 3f 97 90 3f 3f
       0.8372111 1.1474526 1.0791576 0.7483
000010 d0 85 93 3f 43 42 8d 3f c0 fd 87 3f 1d d6 78 3f
       1.1525211 1.1035846 1.0624313 0.9720171
000020 22 93 0e 3f 86 d0 31 bf 8d be 8b bf 8f bf 88 bf
       0.55693257 -0.69458807 -1.0917526 -1.0683459
000030 0d fa 81 bf 06 b3 66 bf ec 4c 9b bf 46 9f 3d 3f
       -1.0154434 -0.9011692 -1.213285 0.74071157
000040 11 83 9e 3f e4 26 64 bf 56 2c 66 bf 79 2d 83 3f
       1.2383748 -0.8912184 -0.899114 1.0248252
000050 2c 4a 6a bf 45 24 99 bf 52 d9 98 3f 84 d7 6d bf
       -0.9151943 -1.1964194 1.1941321 -0.92906976
000060 a0 9a 6f bf af 30 8c bf e2 a0 6f bf 37 a7 95 bf
       -0.93595314 -1.0952357 -0.9360486 -1.1691655
000070 92 85 87 3f 8d c6 89 bf 8d 24 78 bf 8d 7b 52 bf
       1.0587637 -1.0763718 -0.9693077 -0.82219774
000080 e5 25 64 bf fd 9c 5c 3f 2c ff a2 bf 80 6b 55 bf
       -0.8912032 0.86177045 -1.2734122 -0.83367157
000090 bd e5 70 bf 40 6a 85 3f 60 3d 5c 3f be 2e 6e bf
       -0.9410055 1.042305 0.8603115 -0.9304007
0000a0 a2 be 92 3f cb fc 86 3f 0c 2f 7f 3f b9 99 8e 3f
       1.1464427 1.0545896 0.9968116 1.1140662
0000b0 c4 0e 9c bf 79 79 85 3f a5 ec 65 bf 86 40 81 3f
       -1.2192006 1.0427696 -0.89814216 1.0097816
0000c0 3f 57 79 3f 51 48 89 3f ff 70 9b bf 53 91 96 3f
       0.9739875 1.0725194 -1.2143859 1.17631
0000d0 3f 89 7b 3f 15 45 6c 3f 05 4b 7d bf 38 05 86 bf
       0.98256296 0.9229291 -0.98942596 -1.0470343
0000e0 73 c6 2a 3f 59 29 83 3f 02 b9 87 3f bb e3 89 3f
       0.6670906 1.0246993 1.0603335 1.0772623
0000f0 ba 3b 6c bf 41 18 35 3f 46 03 81 3f 76 1a 22 bf
       -0.92278636 0.70740134 1.0079124 -0.63321626
000100 56 53 85 bf 57 15 7d bf 66 d2 6a 3f 55 84 98 bf
       -1.0416057 -0.98860687 0.9172729 -1.1915385
000110 7a 4e 9c bf 54 6a 87 bf 1f 2c 84 3f 0f a1 3f 3f
       -1.2211449 -1.0579324 1.0325965 0.7485513
000120 2a a7 78 3f 86 a1 8f be fb d6 89 bf e2 ec 79 bf
       0.9713007 -0.2805292 -1.0768732 -0.9762708
000130 55 c5 95 3f 1c 52 78 bf 6f 46 85 3f 8e 8d 2b 3f
       1.1700846 -0.9700029 1.041212 0.6701287
000140 7b d2 90 3f 05 f9 76 3f 79 07 88 3f eb 31 74 bf
       1.1314234 0.96473724 1.062728 -0.9538867
000150 f6 6e 81 3f 4a 06 8a 3f 3f 94 88 bf 56 0d 98 3f
       1.0111988 1.0783169 -1.0670241 1.187907
000160 0e 9f 8d 3f 78 90 82 bf 23 bf 83 bf 6f d4 92 3f
       1.1064165 -1.0200338 -1.0292705 1.147108
000170 fe 2f 91 3f 6f f4 90 3f 1c 62 b7 bf f2 ca 83 bf
       1.1342771 1.1324595 -1.4326816 -1.0296309
000180 f6 0b 9b 3f 17 cd 93 bf 64 b1 71 bf f5 4f 99 3f
       1.2113025 -1.1546963 -0.944113 1.1977526
000190 29 6b 8b bf 07 37 8e bf fa f7 72 bf 55 8b 81 3f
       -1.0892078 -1.1110543 -0.9490963 1.0120646
0001a0 0d 56 8c bf c2 77 99 3f e0 4d 77 bf 03 c1 91 bf
       -1.0963761 1.1989672 -0.966032 -1.1387028
0001b0 41 ca 88 3f a8 47 7a bf ef 80 82 3f d7 b9 8e bf
       1.0686723 -0.9776559 1.0195597 -1.1150464
0001c0 d9 b3 78 bf ce 99 81 bf 38 9c 56 3f 79 40 a5 bf
       -0.97149426 -1.0125062 0.8383212 -1.29103
0001d0 bc a3 8d 3f 80 0e 72 3f f8 24 9a bf b0 57 62 3f
       1.1065593 0.94553375 -1.2042532 0.8841505
0001e0 9c 63 93 bf 8e 4f 76 bf 1f 73 7e bf eb 79 5a bf
       -1.1514773 -0.9621514 -0.9939441 -0.8534228
0001f0 41 49 94 3f 4b e6 94 bf c0 8d 86 bf 2e 27 93 3f
       1.1584855 -1.163278 -1.0512009 1.1496332
000200 d8 70 5b 3f 1e 44 7e bf d5 b5 91 bf 64 a8 71 3f
       0.8571906 -0.9932269 -1.1383616 0.9439757
000210 9b 6d 8c 3f 40 15 55 3f 75 8b 8f bf d5 87 7b bf
       1.0970949 0.8323555 -1.1214434 -0.9825414
000220 d8 56 84 bf 1f bc 85 3f 48 4a 98 3f 8f ca 8c 3f
       -1.0339003 1.0448035 1.1897669 1.0999316
000230 6d ce 3a bf 61 78 62 3f a4 a2 48 3f 92 18 92 bf
       -0.7297123 0.88464934 0.7837317 -1.1413748
000240 2c 3c 75 bf 7e 6d 75 3f 9d f5 88 3f c2 8c 93 3f
       -0.9579494 0.95870197 1.0699955 1.1527331
000250 99 12 8f bf 64 de 56 bf 4a 42 8e bf 13 a6 94 bf
       -1.117755 -0.8393309 -1.111398 -1.1613182
000260 29 b0 4c bf ae 0d 6d 3f 6b 96 5b 3f 91 44 f1 3e
       -0.799563 0.92599 0.85776395 0.47122625
000270 45 68 72 bf fe f5 64 3f f4 88 42 3f 7c 40 87 3f
       -0.9469035 0.89437854 0.75990224 1.0566554
000280 97 56 81 bf 6e 0c 89 bf 0d 90 6e 3f e4 25 5b bf
       -1.010455 -1.0706918 0.93188554 -0.8560469
000290 56 68 93 3f 52 8e 71 bf 87 7a 74 3f 40 5b 77 3f
       1.1516216 -0.9435779 0.9549946 0.9662361
0002a0 2d fe 8a bf 4b ea 59 bf a9 aa ae 3f 72 4b 62 bf
       -1.0858818 -0.8512313 1.3645831 -0.8839637
0002b0 77 6a 84 3f 2e a1 9c 3f c4 73 74 bf c9 f4 95 3f
       1.034499 1.2236688 -0.95489144 1.1715328
0002c0 bd ff 74 bf 7c 15 5f bf 8f 6c 35 3f 0a f0 79 3f
       -0.95702726 -0.8714216 0.7086877 0.97631896
0002d0 5a a6 81 bf e2 94 87 bf 15 64 8a 3f 7a 11 8c bf
       -1.0128891 -1.059231 1.0811793 -1.0942833
0002e0 2b f6 6d 3f a0 8c 98 3f 3f e0 85 bf 23 ca 9c 3f
       0.9295375 1.1917915 -1.045906 1.2249187
0002f0 e8 e8 80 bf b0 bd 33 3f 1a 3a 96 bf e3 db 5f bf
       -1.0071077 0.70211315 -1.1736481 -0.87444896
