neuroc_pygs/sec6_cutting/out_cutting_method_res/gat_amazon-computers_best_model.pth (torch_old, 201254 bytes, 8 tensors)

convs.0.att_i f4 [1, 8, 8]
0	0x3aec1f0d	0.0018014625
1	0xbdb1e777	-0.086867265
2	0x3d19a845	0.03751399
3	0xbd74f27a	-0.059801556
4	0xbd010658	-0.03150019
5	0x3c904d71	0.017615052
6	0x3c0c9a45	0.008581703
7	0x3d61c94a	0.055123605
8	0xbc2ba811	-0.010477082
9	0xbbd3150d	-0.0064417184
10	0xbca682f9	-0.020326125
11	0xbd8bb74d	-0.06822071
12	0x3c4ef88a	0.0126324985
13	0x3d25e1c8	0.040498525
14	0xbc3fc2d4	-0.0117041655
15	0xbd35df99	-0.044402692
16	0x3b24be07	0.002513768
17	0x3dd8150a	0.10550888
18	0x3b19ddde	0.002347819
19	0x3d9244fc	0.07142064
20	0x3c168335	0.009186556
21	0xbda5f285	-0.081028976
22	0x3dab3bea	0.08361037
23	0x3d826b53	0.06368127
24	0xbd02c7fe	-0.03192901
25	0xbbafba52	-0.0053627873
26	0x3e0d28a1	0.1378503
27	0xbc6d4539	-0.014481836
28	0xbdc7f35b	-0.09763213
29	0x3e007b77	0.12547098
30	0x3acd414e	0.0015659721
31	0x3c4fea14	0.012690086
32	0x3d62e008	0.055389434
33	0x3c50930c	0.012730371
34	0x3c786752	0.015161352
35	0xbd91e976	-0.07124607
36	0x3b8bf19b	0.004270745
37	0x3d7926a8	0.06082788
38	0xbd595778	-0.053061932
39	0x3d8321cd	0.06402931
40	0xbda56e2b	-0.080776535
41	0xbda5338c	-0.080664724
42	0xbc038abe	-0.008028684
43	0xbc9600b2	-0.018310878
44	0x3c902147	0.017593993
45	0x3aaf3309	0.001336665
46	0xbc34357b	-0.010999079
47	0x3d8187d8	0.06324738
48	0x3bef11cc	0.0072958227
49	0xbc1c896d	-0.009554249
50	0x3cc9f2f8	0.02465199
51	0x3c0df18f	0.008663549
52	0xbd712065	-0.058868784
53	0x3d513c07	0.051082637
54	0xbced0d20	-0.028936923
55	0xbdaa4050	-0.08313048
56	0x3d1232d6	0.035693012
57	0xbd5efb33	-0.05443878
58	0xbd9dcdb2	-0.07705249
59	0x3d8e2f1f	0.069425814
60	0x3e027c39	0.127427
61	0xbaa3aee9	-0.001248804
62	0x3df833de	0.12119268
63	0x3dcf36ea	0.10117896

convs.0.att_j f4 [1, 8, 8]
0	0xbde4778b	-0.111556135
1	0xbef4b6e9	-0.477958
2	0x3e6bc8f1	0.23025872
3	0xbe8e9e33	-0.2785507
4	0xbe28979f	-0.16464089
5	0x3da056fb	0.0782909
6	0x3dc321e0	0.095279455
7	0x3e55094c	0.20804328
8	0xbd5d5567	-0.054036524
9	0xbd36125d	-0.044451106
10	0xbe155c10	-0.145859
11	0xbee90ba2	-0.45516688
12	0x3dbc3895	0.0919048
13	0x3e7cb177	0.24677072
14	0xbcd1f6b6	-0.025630336
15	0xbe17c7cc	-0.1482231
16	0x3c5428aa	0.012949148
17	0x3f0916bc	0.53550315
18	0xbe0db325	-0.1383787
19	0x3f057c0f	0.52142423
20	0xbda46588	-0.08027178
21	0xbf080d18	-0.5314498
22	0x3f11f613	0.57016104
23	0x3ec297eb	0.3800653
24	0x3cb9433d	0.02261507
25	0x3dfe156f	0.12406432
26	0x3f376e19	0.7165237
27	0x3caa2a06	0.020771991
28	0xbe939401	-0.28823856
29	0x3eea230b	0.4572986
30	0x3e788243	0.24268441
31	0x3e45be5f	0.19310902
32	0x3e5b4771	0.21413971
33	0x3de4c9bf	0.111712925
34	0xbb43ef15	-0.0029897143
35	0xbe4066a3	-0.18789153
36	0x3c60a6ab	0.013711612
37	0x3e91f26c	0.28505266
38	0xbddf266e	-0.10896002
39	0x3e822ff4	0.2542721
40	0xbeee9df2	-0.46604878
41	0xbed781e0	-0.42091274
42	0xbce62906	-0.028095733
43	0xbcd0d1e3	-0.025490707
44	0x3cafd859	0.021465467
45	0x3dbc4e3c	0.091946095
46	0xbda5ea85	-0.08101372
47	0x3e8c5640	0.27409554
48	0x3e3a71dd	0.18207498
49	0xbd8e9d34	-0.06963578
50	0x3e6b11cc	0.22956008
51	0x3e802635	0.2502915
52	0xbe5d3097	-0.21600567
53	0x3e1bffc9	0.15234293
54	0xbe91b28a	-0.28456527
55	0xbe9d651e	-0.3074121
56	0x3ef99a5b	0.48750576
57	0xbba1b7a1	-0.0049352203
58	0xbea212dc	-0.31655014
59	0x3efac02d	0.48974743
60	0x3edd0f2e	0.43175644
61	0x3d91ce4f	0.07119428
62	0x3f20c014	0.6279309
63	0x3ef773ad	0.4833044

convs.0.bias f4 [64]
0	0x3c4845e3	0.012223694
1	0x3be0ce3a	0.0068605216
2	0xbbf3581e	-0.007426276
3	0xbba0ab3f	-0.0049032266
4	0xbb7af24b	-0.003829139
5	0x3c0b8efd	0.008517978
6	0x3a08f68d	0.0005224727
7	0x3bd88f2b	0.006608864
8	0x3c8af96b	0.016964635
9	0x3b01bb25	0.0019795385
10	0x3a0229a1	0.00049653096
11	0xbb1265ef	-0.002233859
12	0x3aea2d98	0.0017866371
13	0x3be61ad0	0.0070222393
14	0xbadf1e73	-0.0017022624
15	0xbb632818	-0.003466135
16	0x3a8b91c4	0.00106483
17	0xb910e5de	-0.00013818542
18	0x3ad6b23e	0.0016380025
19	0xba4adac2	-0.0007738286
20	0xbb0c9e80	-0.0021456778
21	0xbb8c4573	-0.00428074
22	0xba6be0d6	-0.0008998042
23	0x3c2053af	0.009785577
24	0x37e48cee	2.7245344e-05
25	0xbb28b3fb	-0.0025742042
26	0xbbad4e50	-0.0052888766
27	0x3d15bc89	0.036556754
28	0xbaf7a188	-0.0018892745
29	0x3ac181ba	0.0014763393
30	0x3c89f67c	0.016841166
31	0xbc165b6e	-0.009177072
32	0x3bcd5bc9	0.006267045
33	0x3a979955	0.0011566082
34	0x3cd240f7	0.025665743
35	0x3a9b48be	0.001184724
36	0xbbd887c8	-0.0066079833
37	0xb922e664	-0.00015535351
38	0x3bebf274	0.0072005335
39	0x3b8a0afd	0.0042127357
40	0x3ad70c53	0.0016406871
41	0xb973323d	-0.00023193001
42	0xbb29c43d	-0.002590432
43	0x3ba89acd	0.005145407
44	0x3b028a89	0.0019919
45	0xba17ad78	-0.0005786042
46	0x3905e1ab	0.00012767936
47	0x3b89d25b	0.0042059845
48	0x3bd3817c	0.0064546447
49	0xbc463163	-0.012096736
50	0x3c8a1358	0.016854927
51	0xba84ddd3	-0.001013691
52	0x3a463110	0.00075604115
53	0x3abae7a2	0.0014259706
54	0x3b14b0b4	0.002268833
55	0x3c2c1487	0.010502941
56	0xb980bf8a	-0.0002455677
57	0xbc07b63d	-0.008283195
58	0xbb5feedc	-0.003416947
59	0x3b0f4eb0	0.002186697
60	0xbc02241d	-0.00794318
61	0x3b08e0cd	0.0020885945
62	0x3c821e25	0.015883515
63	0x3bbf8aed	0.0058454187

convs.0.lin.weight f4 [64, 767]
0	0xbdeb067f	-0.114758484
1	0xbe44b411	-0.19209315
2	0xbaa1150b	-0.0012289596
3	0x3db2e137	0.087343626
4	0x3eaaa32d	0.33327618
5	0xbc5f143f	-0.013615667
6	0xbd11f953	-0.035638165
7	0x3d8eabae	0.06966339
8	0xbe1618ae	-0.14657852
9	0x3e25b718	0.16183126
10	0xbe9e9f8a	-0.30981094
11	0x3cf41e8a	0.029799718
12	0xbc49a817	-0.012308142
13	0x3d8790d7	0.06619423
14	0x3de24a32	0.11049308
15	0xbcd69600	-0.026194572
16	0xbd7b6ef0	-0.061385095
17	0x3cf8beeb	0.030364474
18	0xbdc7e26e	-0.09759985
19	0xbc9f73c5	-0.019464383
20	0xbd57d48a	-0.052692927
21	0xbdf73b85	-0.12071899
22	0xbd9ecab7	-0.077535085
23	0xbdb62cad	-0.0889524
24	0xbe03c301	-0.12867357
25	0xbe5d9362	-0.21638253
26	0x3db960dd	0.09051678
27	0x3dc9b3bb	0.09848734
28	0x3c39c53f	0.011338531
29	0xbca29754	-0.01984755
30	0xbd50cdb7	-0.050977435
31	0x3d9568d9	0.07295389
32	0x3eed2fe3	0.46325597
33	0x3e0c756b	0.13716666
34	0xbcc5553c	-0.024088494
35	0x3dac76d6	0.08421104
36	0x3e0ac7b0	0.13552737
37	0x3d9fbec4	0.078000575
38	0x3c9eb070	0.019371241
39	0x3d77cdcc	0.060498998
40	0x3d71d04f	0.05903655
41	0x3db8e54e	0.090281114
42	0x3e3869ed	0.18009157
43	0xbeb22f26	-0.34801596
44	0xbd031493	-0.032002043
45	0xbc3d4603	-0.011552337
46	0x3dee5360	0.11636996
47	0x3cdcfb8b	0.026975414
48	0x3d162a1b	0.03666125
49	0xbdb63f6e	-0.08898817
50	0xbd9bab58	-0.076010406
51	0x3e29cf17	0.16582905
52	0xbca24997	-0.019810481
53	0x3d005fe7	0.03134146
54	0xbe08b86e	-0.13351604
55	0x3cb8fb32	0.022580717
56	0x3cf6cb9b	0.030126384
57	0xbd974889	-0.07386882
58	0xbd3fabbd	-0.04679464
59	0x3d617446	0.055042528
60	0x3dc0fa05	0.094226874
61	0x3d2111ee	0.03932374
62	0xbd93c8ba	-0.0721602
63	0x3b9caf00	0.004781604
64	0x3cf7bd84	0.030241735
65	0xbe03b4d3	-0.12861948
66	0xbe577029	-0.2103888
67	0xbe107574	-0.14107305
68	0xbdc95066	-0.09829788
69	0xbe979397	-0.2960479
70	0x3e91cd54	0.28476965
71	0xbdf7ac67	-0.1209343
72	0xbde9a1ed	-0.11407838
73	0xbd43e119	-0.04782209
74	0x3da982fe	0.08276938
75	0xbca03b4d	-0.019559527
76	0xbe3df110	-0.1854899
77	0x3b540d73	0.003235665
78	0x3d9d01ea	0.07666381
79	0x3e5cffee	0.21582004
80	0x3d46a729	0.04849926
81	0xbd910705	-0.07081417
82	0xbdd4f151	-0.1039759
83	0xbe29e298	-0.16590345
84	0xbd054e97	-0.032545652
85	0xbd7da90a	-0.061928786
86	0x3db8a8e6	0.0901659
87	0xbcc3ce26	-0.02390201
88	0x3e1d2d45	0.153493
89	0x3d59066c	0.05298464
90	0xbdcd3748	-0.1002031
91	0xbe4fee9e	-0.20305869
92	0x3da21396	0.07913892
93	0xbdb8645f	-0.09003519
94	0xbeb6e956	-0.35724896
95	0xbe019a64	-0.12656552
96	0x3d61d310	0.055132926
97	0xbde8012b	-0.11328348
98	0x3d823f6b	0.06359752
99	0x3e513ce2	0.20433381
100	0x3d650aa6	0.05591836
101	0xbcb1db1d	-0.021710927
102	0xbc1ee80b	-0.009698878
103	0xbe3bd3f8	-0.18342578
104	0x3cc5b813	0.024135625
105	0x3d31b9c7	0.04339006
106	0x3beb8196	0.0071870787
107	0x3d96bf69	0.07360727
108	0x3c881f4c	0.016616486
109	0xbe87b987	-0.26508734
110	0xbdec504f	-0.11538755
111	0xba41149f	-0.00073654385
112	0xbced0ae2	-0.028935853
113	0xbe425f5a	-0.18981686
114	0x3c6329db	0.01386496
115	0xbd2a7b8e	-0.041621737
116	0x3d304417	0.043033686
117	0x3dd7f6b8	0.10545105
118	0xbd2d49ee	-0.042306833
119	0xbdaac0e0	-0.08337569
120	0xbc808481	-0.015688183
121	0xbe6e8226	-0.23291835
122	0xbd823b7c	-0.06359002
123	0x3d1126da	0.035437442
124	0xbc658121	-0.0140078375
125	0x3d6488d5	0.055794556
126	0xbd4ea7ae	-0.05045288
127	0x3d98be15	0.0745813
128	0x3dc770d6	0.097383186
129	0x3daccd1c	0.08437559
130	0x3de366ed	0.11103616
131	0x3e079bb1	0.13242985
132	0x3da49539	0.080362745
133	0xbe0f9b99	-0.140242
134	0x3ca224a1	0.019792857
135	0xbdef6f98	-0.11691207
136	0x3e23ab54	0.15983325
137	0xbe36a72d	-0.1783721
138	0xbda55e0f	-0.08074581
139	0xbdd681db	-0.10473987
140	0x3d445f45	0.04794242
141	0x3a55ff38	0.0008163336
142	0x3bd761bb	0.0065729297
143	0x3df41471	0.119179614
144	0xbe88a4e7	-0.2668831
145	0x3d8b24a0	0.06794095
146	0xbd3f557a	-0.046712376
147	0xbc536a37	-0.012903742
148	0xbd8d42f0	-0.06897533
149	0x3a76976c	0.0009406719
150	0x3c2c1498	0.010502957
151	0x3e90a778	0.2825277
152	0x3db04d0e	0.08608447
153	0xbdf17d18	-0.11791438
154	0xbd826329	-0.063665695
155	0xbd9d2b93	-0.07674327
156	0x3b5115a0	0.0031903759
157	0x3cac1165	0.021004388
158	0xbd9c4440	-0.07630205
159	0xbe85dda5	-0.26145664
160	0x3b4b4a21	0.0031019526
161	0x3dad428b	0.08459958
162	0xbd3fe977	-0.04685351
163	0xbe13c9c0	-0.1443243
164	0x3c1fb19d	0.009746936
165	0xbe3ca2ab	-0.18421428
166	0x3da07083	0.0783396
167	0xbd6540b8	-0.055969924
168	0xbcdc6499	-0.026903437
169	0x3eceb835	0.40374914
170	0x3e68baa1	0.22727443
171	0xbd054c43	-0.032543432
172	0x3db5c0eb	0.08874687
173	0x3c8c4e5c	0.017127208
174	0x3c9fd25e	0.01950949
175	0xbccfeca8	-0.025381401
176	0x3e3f02de	0.18653437
177	0x3d86b15e	0.06576799
178	0x3d6e9e61	0.05825651
179	0x3e088ccb	0.13334958
180	0xbe1685d3	-0.14699487
181	0xbc9d423e	-0.019196626
182	0xbdd8ea05	-0.10591511
183	0xbd20c90d	-0.039254237
184	0x3e8161e9	0.25270012
185	0x3e08c445	0.13356121
186	0x3dd4df75	0.103941835
187	0x3c4a8ac4	0.012362186
188	0xbd467e4f	-0.0484603
189	0xbef4fce1	-0.4784918
190	0x3c854736	0.016269308
191	0xbb5e606a	-0.003393198
192	0x3cc61d96	0.02418403
193	0xbe9563f4	-0.2917782
194	0xbd910d2d	-0.07082591
195	0x3da22b7f	0.079184525
196	0xbddf34c2	-0.10898735
197	0x3db1af5b	0.086760245
198	0x3e0264c3	0.1273375
199	0x3cf9bca3	0.030485457
200	0x3e153037	0.14569174
201	0x3ddce484	0.107857734
202	0xbd27ca29	-0.04096428
203	0x3d8021a1	0.06256414
204	0xbe0117e4	-0.1260677
205	0xbcca14a0	-0.024668038
206	0x3c19d8c0	0.009390056
207	0xbdee46a0	-0.116345644
208	0xbcbd71d8	-0.023125574
209	0x3bce4c91	0.0062957485
210	0x3d13b87b	0.036064606
211	0xbca45a91	-0.020062717
212	0xbcfc9822	-0.030834261
213	0x3bb67d4c	0.005569136
214	0xbd557978	-0.052117795
215	0xbe0ef70d	-0.1396143
216	0x3ce19cae	0.027540531
217	0x3e5b23e0	0.21400404
218	0xbd1b941e	-0.037983052
219	0xbd00089f	-0.03125822
220	0x3c9214fa	0.017832268
221	0x3e3059e9	0.17221798
222	0xbdea79f1	-0.1144904
223	0x3c5f6795	0.013635536
224	0x3de059df	0.109546416
225	0xbd1a2a96	-0.03763827
226	0x3e56bf62	0.20971444
227	0xbd9b4d23	-0.07583072
228	0x3ac63fb3	0.0015125185
229	0x3dd2c283	0.102910064
230	0xbeb95e9c	-0.36204994
231	0xbcc811a6	-0.024422478
232	0xbd78649b	-0.06064282
233	0x3c3c6e68	0.011500932
234	0xbdb217a2	-0.08695914
235	0x3e464937	0.19363867
236	0xbe7bdf83	-0.24596982
237	0x3da954b0	0.08268106
238	0xbb92073a	-0.004456428
239	0x3e8ec818	0.27887034
240	0xbdebbede	-0.115110144
241	0x3e2b8e93	0.16753606
242	0xbe06ac87	-0.13151751
243	0x3ee673b7	0.45010158
244	0x3d82764d	0.0637022
245	0x3d941dae	0.072322235
246	0x3bb8afd4	0.0056361947
247	0x3e1ec388	0.15504277
248	0x3db1f0f4	0.08688536
249	0xbc00a2ac	-0.007851284
250	0x3cf3f2ff	0.029778956
251	0xbda1bf55	-0.07897822
252	0x3c7e0228	0.015503444
253	0x3e3fd9fa	0.18735495
254	0x3e0d8bdc	0.13822883
255	0x3c1cf5b0	0.009580061

convs.1.att_i f4 [1, 1, 10]
0	0xbf14c72d	-0.5811642
1	0xbf792dea	-0.97335684
2	0x3efba161	0.4914656
3	0x3f7f1634	0.99643254
4	0xbe8155f5	-0.25260893
5	0xbf1e3959	-0.61806256
6	0xbffb358d	-1.9625717
7	0x3fa5d63e	1.2956007
8	0x3d068f57	0.032851543
9	0x3feaab3c	1.8333507

convs.1.att_j f4 [1, 1, 10]
0	0xbf3c3026	-0.7351097
1	0x3df10f19	0.11770458
2	0x3f022735	0.50841075
3	0x3fff7150	1.9956455
4	0x3f19b7a9	0.6004587
5	0xbf179db9	-0.5922504
6	0x3cfbdeec	0.030745946
7	0x3f820edd	1.0160786
8	0x3f41b18b	0.75661534
9	0x3e8763a4	0.26443207

convs.1.bias f4 [10]
0	0xbf67d02d	-0.90552026
1	0x3f0248d5	0.5089238
2	0x3d35a5e7	0.04434767
3	0xbf21e1af	-0.6323499
4	0x3f7d430a	0.9893042
5	0xbf879210	-1.059145
6	0xbf45a1be	-0.77199924
7	0xbc74a3a3	-0.014931592
8	0x3ee63404	0.4496156
9	0xbf8cd934	-1.1003785

convs.1.lin.weight f4 [10, 64]
0	0xc0ab94ec	-5.361929
1	0xc0bc99cf	-5.8937755
2	0x3fd36da6	1.6517837
3	0xbfb66072	-1.4248183
4	0x3f121b22	0.5707265
5	0x4000eb9a	2.01438
6	0x40e71073	7.220758
7	0x3c8842ec	0.016633473
8	0x3f2288a5	0.63489753
9	0xbfc6429d	-1.5489079
10	0xc08638a9	-4.1944165
11	0xc0e91aee	-7.2845373
12	0xbf5db0b3	-0.86597747
13	0x40fb4dbf	7.8532405
14	0x3fa248b3	1.2678436
15	0xbf8c2bed	-1.0950905
16	0xc04ac28d	-3.1681244
17	0xc01239e8	-2.2847843
18	0x406da8c0	3.7134247
19	0x4088d925	4.276507
20	0x3f7f66b8	0.9976611
21	0xc0be4936	-5.946437
22	0xbe40442f	-0.1877601
23	0xc0918a07	-4.548099
24	0xbfe3e666	-1.7804687
25	0xbfb1231d	-1.3838841
26	0x40e81726	7.2528257
27	0x3f54a1bd	0.83059293
28	0x3df88aa3	0.12135818
29	0xbee9bfb2	-0.45654064
30	0x41422e0a	12.13624
31	0x3f578ea7	0.84202045
32	0xbfa845ad	-1.3146263
33	0xbf2b50eb	-0.66920346
34	0x3f185b6a	0.59514487
35	0xc096d78a	-4.713811
36	0xbef4d039	-0.4781511
37	0x407c0c75	3.9382603
38	0xc03a0812	-2.9067426
39	0x41049c95	8.288228
40	0xc0e19c03	-7.0502944
41	0xc103a11a	-8.226831
42	0x408a3cab	4.3199058
43	0x3ef41315	0.47670808
44	0xbf4b5287	-0.794228
45	0x3f1c736c	0.6111362
46	0x400608b3	2.094281
47	0x4049fbe3	3.155999
48	0xbf39671b	-0.7242295
49	0xbf495b41	-0.7865487
50	0xbfc78607	-1.5587777
51	0x3dc1bcc2	0.09459831
52	0xbfad7340	-1.3550797
53	0xc007d9f4	-2.1226778
54	0x3fe33807	1.7751473
55	0xbfe61e0c	-1.797792
56	0x4096896f	4.7042766
57	0xbf3e36bb	-0.7430226
58	0xbfed033c	-1.8516612
59	0x40c472c2	6.1390085
60	0x405892c8	3.3839588
61	0xc0679dbd	-3.6190026
62	0xbf1e3514	-0.6179974
63	0x3fea562f	1.8307551
64	0x40aa78d4	5.3272495
65	0x4101b5e4	8.106907
66	0x40e300c5	7.093844
67	0x40946682	4.637513
68	0x40ada717	5.4266467
69	0xc0efc5df	-7.492904
70	0xc0d2d2b4	-6.5882206
71	0xc096856c	-4.703787
72	0x3fef2978	1.868453
73	0x405756f9	3.3646834
74	0x40a30616	5.094493
75	0x40bfc523	5.9928145
76	0xc000ef8a	-2.0146203
77	0xc0c2fd44	-6.093416
78	0x4065d500	3.5911255
79	0x410131d3	8.074664
80	0x40a1adc5	5.052462
81	0xc10320a9	-8.195474
82	0xc0cedc27	-6.464374
83	0xc0e8d362	-7.2758036
84	0xc0cdce18	-6.431408
85	0x40d46c9b	6.6382575
86	0xc0e32996	-7.0988264
87	0xc0d2f3e9	-6.592274
88	0x405bf568	3.4368534
89	0x40e768a2	7.2315226
90	0x40f1c69d	7.555495
91	0x3f5cef6a	0.86302817
92	0xc0e48176	-7.1408033
93	0x4107a22c	8.477093
94	0xc0a108d2	-5.0323267
95	0x4106e0ec	8.429913
96	0xc0bab72e	-5.834861
97	0xc0917fea	-4.5468645
98	0x3f9ce69a	1.2257874
99	0x40c33fbb	6.1015296
100	0xbfaedadc	-1.366054
101	0xc0d718f2	-6.721795
102	0x40bb1112	5.845834
103	0xc0db2e21	-6.849381
104	0x40e87872	7.264703
105	0x40dde603	6.9343276
106	0xc0c9d801	-6.3076177
107	0x4000a1f4	2.0098848
108	0xc01a1133	-2.4072998
109	0x403daa86	2.963533
110	0xc0b83dcb	-5.757543
111	0xc0f614e6	-7.690051
112	0x402d059e	2.7034678
113	0xbf85c8ed	-1.0451943
114	0x4072fad0	3.7965584
115	0x4094451d	4.6334367
116	0x40e7689d	7.23152
117	0xc0e101c5	-7.031466
118	0xc06478ab	-3.569865
119	0x410a3836	8.638723
120	0xc0a9de9a	-5.308423
121	0xbf902708	-1.1261911
122	0x3fec37ac	1.845449
123	0xc0ea88cd	-7.3291993
124	0xc0e7ca4c	-7.2434444
125	0x40f48725	7.641497
126	0xc0d0d751	-6.5262837
127	0xc0e83fec	-7.257803
128	0xc0f9e3a0	-7.8090363
129	0xc0a1e3e2	-5.0590677
130	0x40c8292d	6.2550263
131	0xc0acc3b0	-5.3988876
132	0x40efa357	7.488689
133	0xc0f8e842	-7.778352
134	0x4064af3b	3.5731952
135	0x4052f168	3.2959843
136	0xbfba99a5	-1.4578139
137	0xc099e70d	-4.8094544
138	0xc1033cd1	-8.202348
139	0xc0856628	-4.1687202
140	0x4067b029	3.620127
141	0x40d22ddb	6.5680976
142	0xc081be78	-4.0545006
143	0x41077271	8.46544
144	0xc0bcf184	-5.904482
145	0xc109b144	-8.605778
146	0x409414a5	4.62752
147	0x40dd652f	6.9186015
148	0x40ccd39f	6.4008327
149	0xc0035075	-2.0517857
150	0xc0fa65a5	-7.824908
151	0xc0f56412	-7.6684656
152	0xc031b00c	-2.77637
153	0x3e825c16	0.2546088
154	0x40bedf5e	5.9647665
155	0xbf2ada2f	-0.6673917
156	0xc0ff9127	-7.986469
157	0x4106fdb8	8.436943
158	0x40bdc931	5.9308095
159	0x400d03ec	2.2033644
160	0xc0db3de8	-6.851307
161	0x40b4fdb6	5.6559706
162	0xbfbeac6a	-1.4896367
163	0xc0b41373	-5.627374
164	0x3fa43798	1.2829466
165	0x4091f901	4.561646
166	0xc0bde25e	-5.9338827
167	0x40e65a5d	7.1985307
168	0xc09fc5ee	-4.9929113
169	0xc0b609b0	-5.6886826
170	0x40db40ae	6.8516455
171	0xbfd44a35	-1.6585146
172	0x3e47c34e	0.19508097
173	0xc0c3c5b2	-6.1178827
174	0x40d502e1	6.6566014
175	0xc01782c6	-2.3673568
176	0xc031c9e4	-2.7779474
177	0x3f685951	0.90761286
178	0xc083d5ff	-4.1198726
179	0xc0a5c245	-5.1799645
180	0x40c24ae9	6.0716443
181	0xc10243bf	-8.14154
182	0x40049933	2.0718505
183	0x40e8db45	7.2767663
184	0x40510b90	3.2663307
185	0x3fb92215	1.4463526
186	0x40d3fc93	6.624582
187	0x40977d93	4.734079
188	0xc1045499	-8.270654
189	0xc0bfd0e0	-5.9942474
190	0xc119ad35	-9.604787
191	0xc0f6dbcb	-7.71433
192	0xc085b37c	-4.1781597
193	0xc08b4c80	-4.3530884
194	0x3e8f58be	0.27997392
195	0xc0661bc2	-3.5954442
196	0xc0bb4c6f	-5.8530803
197	0x40192a90	2.3932228
198	0xc080ccf1	-4.0250173
199	0x3ff29972	1.8953078
200	0xbf4b76f7	-0.794784
201	0xbf65a15c	-0.8969934
202	0xc06356cd	-3.552173
203	0xc0c0aa2d	-6.0207734
204	0x3ffbac28	1.9661913
205	0x40d265cb	6.574926
206	0x3f43e8bc	0.76527
207	0xc0776ba5	-3.865945
208	0xbf58a111	-0.8462077
209	0xbf89a0ad	-1.0752159
210	0x40385f24	2.880807
211	0xc0894492	-4.2896204
212	0xc00e6f8d	-2.2255585
213	0x3f685947	0.90761226
214	0xc051e62f	-3.2796743
215	0x3ebfc723	0.37456617
216	0xbfd18163	-1.6367611
217	0x3f4789d4	0.77944684
218	0x3fe29bc1	1.7703782
219	0xbea82b62	-0.32845598
220	0x407c0786	3.9379592
221	0xbe8afc44	-0.27145588
222	0x4111376a	9.076029
223	0xc08929c0	-4.2863464
224	0x40c86f75	6.2636056
225	0x40207766	2.5072875
226	0xbeda4306	-0.4262926
227	0xbf8b4853	-1.0881447
228	0x3f2ed2a0	0.6829014
229	0x40864d9d	4.1969743
230	0x3f9cdf4b	1.2255644
231	0x40bbd850	5.8701553
232	0x4089e36e	4.3090124
233	0xbfd42878	-1.657485
234	0x3f2dc455	0.67877704
235	0xbfbbc8f3	-1.46707
236	0x4011d5d4	2.278676
237	0xbfb0382b	-1.3767141
238	0x40634364	3.5509882
239	0x3dff7b39	0.12474675
240	0xbfe7b9e4	-1.8103604
241	0x3ef5fd58	0.48044848
242	0xbfc769a6	-1.5579116
243	0xc01e6855	-2.475118
244	0xbed65fb3	-0.41869888
245	0x405eab17	3.4791925
246	0x4037e445	2.8733075
247	0x3e13cb67	0.1443306
248	0x40a1068b	5.0320487
249	0x3f0f8bbf	0.5607261
250	0xc0bf0974	-5.969904
251	0x40b8066a	5.750783
252	0x4042f112	3.0459638
253	0x3ff5c8e4	1.9201932
254	0x41012dc8	8.073677
255	0x409e49f8	4.9465294
