neuroc_pygs/sec6_cutting/out_cutting_method_res/gcn_amazon-computers_best_model.pth (torch_old, 200077 bytes, 4 tensors)

convs.0.weight f4 [767, 64]
-0.048729725 -0.01923247 0.012888566 -0.07373309 0.095527604 0.013681714 0.027864039 -0.008803506
0.022598062 -0.00016424998 0.024809645 0.011287881 0.10304214 7.3339575e-14 -4.365256e-19 0.08056996
0.025903422 -6.6252e-41 0.060236543 0.077894755 -0.017021315 0.03804384 -0.010438359 1.3390857e-18
0.0031921878 0.0014173666 -0.072390474 0.03702229 -0.01799095 -0.060334843 0.022955298 -2.7325e-41
-0.03828128 -0.03465865 0.000547773 -4.507946e-08 -0.038094454 0.075547904 -0.014914919 -0.030787796
-0.013964852 -0.009086365 7.6955e-41 -0.05694899 0.029433873 -0.006011772 -7.7251483e-10 0.09585554
0.044386182 -0.03719171 -0.011448027 0.083681814 -0.045452625 0.062341128 0.036922462 0.016043833
0.004177566 0.011403121 7.4720033e-06 0.0350268 -0.039595254 -0.020169398 -0.0093028145 -0.019971916
0.048671965 0.05390456 0.11515103 -0.05382052 0.074200094 0.044299055 -0.014637356 0.0006757894
0.0457455 0.001548556 0.07799242 -0.0070279585 -0.014379995 -4.5970524e-13 -1.1840457e-19 0.09306432
-0.039503854 -2.4737e-41 0.035217695 0.059300493 -0.006518602 -0.013901915 -0.107813396 -8.140923e-19
0.0149085345 0.0006559215 -0.08432327 -0.032842007 -0.0077122473 -0.06388076 0.016069608 4.4236e-41
0.003017639 -0.06514092 -0.00075850135 -3.0234526e-07 -0.048817236 0.06805331 0.07510198 -0.052679572
-0.04727304 -0.005752915 -1.6066e-41 -0.06509119 0.04559178 0.019810122 -1.3617737e-09 0.09489505
-0.0008046178 -0.0633819 0.0041301125 0.106048815 -0.06421442 0.038125254 0.011569329 0.050184973
0.0057283845 0.04630992 -8.222485e-06 0.033487197 -0.008218095 -0.007984355 -0.053784914 -0.0017585843
0.27310714 0.013630351 0.24075937 -0.07939375 -0.00036643224 -0.020835932 -0.2456383 0.00314738
0.3170792 0.038872954 0.11727798 0.15374887 0.21532157 -1.08364354e-13 6.925167e-20 0.04327869
-0.17618105 -2.7582e-41 -0.13430391 -0.015234321 -0.009336745 -0.23811683 -0.2428091 -6.137497e-19
-0.041322447 0.0022112492 -0.0146631645 0.008875884 0.020261036 -0.049931135 -0.043247987 -3.5631e-41
-0.0036600607 -0.05471988 -2.5270616e-05 2.6722014e-07 -0.036390524 -0.04932642 0.11704397 -0.07306038
-0.0576646 -0.0009367673 8.6187e-41 -0.04851147 0.07147502 0.19489272 -5.96111e-10 0.068664856
-0.06954855 0.009095232 -0.19128576 0.070114784 -0.04829733 -0.05715783 -0.21825372 0.08566867
-0.05230341 0.011201581 -1.141323e-05 0.08949908 0.058230538 0.2283385 -0.07239791 -0.006114279
0.024705563 -0.0065178783 0.11000391 -0.09239954 -0.02861314 -0.0029351981 0.009101068 0.006027077
0.11940036 0.13463171 0.02886468 0.22571735 0.062468514 -8.5771895e-13 4.1846736e-19 -0.052032176
0.0016281095 -5.5796e-41 -0.03923312 -0.039666515 0.018347036 0.0039062032 0.08295505 1.4072067e-18
0.023634925 0.014045538 0.05373197 -0.041031163 0.025396561 -0.06334548 0.03530535 5.1216e-41
-0.08510834 -0.074841745 -0.0011212516 1.9059433e-07 -0.07669351 -0.014623783 0.16430433 -0.05301366
-0.04543139 0.0037368787 -7.1697e-41 -0.076060474 -0.008321871 0.0028396551 1.4382997e-09 -0.035293333
0.043486558 0.038943995 -0.0101802405 -0.039304648 -0.063540265 -0.032241974 0.037146382 0.04160721
-0.06025811 0.08125088 -6.235184e-07 -0.08275985 -0.09103213 -0.02950379 -0.05768356 0.0022898794
00000000: d298 47bd 6a8d 9dbc 902a 533c 6001 97bd
00000010: faa3 c33d 4529 603c 2043 e43c 953c 10bc
00000020: 921f b93c 853a 2cb9 993d cb3c cef0 383c
00000030: c207 d33d 6325 a529 f1d6 00a1 dd01 a53d
00000040: 6a33 d43c afb8 0080 98ba 763d 4987 9f3d
00000050: 4970 8bbc dcd3 1b3d a705 2bbc 3a9d c521
00000060: 0634 513b eec6 b93a 7541 94bd afa4 173d
00000070: c261 93bc ab21 77bd c00c bc3c 2c4c 0080
00000080: d5cc 1cbd 3bf6 0dbd 6c98 0f3a 649d 41b3
00000090: ee08 1cbd dcb8 9a3d b45d 74bc b036 fcbc
000000a0: d6cc 64bc fade 14bc 85d6 0000 5843 69bd
000000b0: 4e1f f13c 66fe c4bb e658 54b0 e94f c43d
000000c0: 49ce 353d 5656 18bd 8190 3bbc 5f61 ab3d
000000d0: 882c 3abd 6959 7f3d 023c 173d 5b6e 833c
000000e0: f7e3 883b 28d4 3a3c 05b8 fa36 4378 0f3d
000000f0: a22e 22bd 4b3a a5bc d56a 18bc 259c a3bc
00000100: 415c 473d 07cb 5c3d 4ed4 eb3d e872 5cbd
00000110: 38f6 973d ed72 353d 85d1 6fbc 7527 313a
00000120: a25f 3b3d ebf8 ca3a 7dba 9f3d ca4a e6bb
00000130: 129a 6bbc 4165 01ab 96c9 0ba0 8298 be3d
00000140: cbce 21bd f544 0080 6e40 103d 13e5 723d
00000150: ff99 d5bb dcc4 63bc 45cd dcbd 1347 70a1
00000160: ed42 743c 26f2 2b3a aeb1 acbd 5785 06bd
00000170: 05b7 fcbb ead3 82bd 69a4 833c 507b 0000
00000180: 95c3 453b 9a68 85bd 2ad6 46ba 0452 a2b4
00000190: 95f4 47bd 895f 8b3d 11cf 993d 89c6 57bd
000001a0: 60a1 41bd f382 bcbb c92c 0080 884e 85bd
000001b0: 72be 3a3d d648 a23c 2729 bbb0 5658 c23d
000001c0: fdec 52ba 5fce 81bd e555 873b 1f30 d93d
000001d0: da82 83bd 3a29 1c3d 488d 3d3c c28e 4d3d
000001e0: 2cb5 bb3b 78af 3d3d 4ef3 09b7 df29 093d
000001f0: 30a5 06bc d0d0 02bc 924d 5cbd 4c80 e6ba
00000200: b3d4 8b3e d651 5f3c a089 763e 3199 a2bd
00000210: b41d c0b9 1eb0 aabc 9b88 7bbe 4644 4e3b
00000220: 3458 a23e 3f39 1f3d 702f f03d 5870 1d3e
00000230: 427d 5c3e cc03 f4a9 1184 a31f ff44 313d
00000240: ce68 34be e34c 0080 f786 09be 6099 79bc
00000250: 26f9 18bc e6d4 73be f3a2 78be 9e25 35a1
00000260: ba41 29bd 9bea 103b c53d 70bc 286c 113c
00000270: 79fa a53c 9784 4cbd cd24 31bd 5363 0080
00000280: a1dd 6fbb f421 60bd 3cfc d3b7 7576 8f34
00000290: 3b0e 15bd 800a 4abd c0b4 ef3d aea0 95bd
000002a0: b731 6cbd 6491 75ba 41f0 0000 f7b3 46bd
000002b0: 7f61 923d f591 473e 95db 23b0 29a0 8c3d
000002c0: 786f 8ebd 2b04 153c 6ae0 43be 5798 8f3d
000002d0: 6cd3 45bd 541e 6abd e77d 5fbe 0e73 af3d
000002e0: 1a3c 56bd d686 373c 737b 3fb7 4b4b b73d
000002f0: 2583 6e3d 91d1 693e 5b45 94bd 4a5a c8bb
00000300: 5263 ca3c ed93 d5bb bb49 e13d f83b bdbd
00000310: 1b66 eabc 745c 40bb a51c 153c c97e c53b
00000320: 2d88 f43d e5dc 093e 9f75 ec3c 7322 673e
00000330: fcde 7f3d 2a6d 71ab 0005 f720 b11f 55bd
00000340: 4a66 d53a 899b 0080 e8b2 20bd 5b79 22bd
00000350: 864c 963c 37ff 7f3b 56e4 a93d c4aa cf21
00000360: 089e c13c 421f 663c 0e16 5c3d 4b10 28bd
00000370: 730c d03c 46bb 81bd 589c 103d c58e 0000
00000380: 484d aebd a146 99bd f6f6 92ba 2ca6 4c34
00000390: 7d11 9dbd 9798 6fbc 653f 283e da24 59bd
000003a0: 4416 3abd 6ce6 743b ddc7 0080 98c5 9bbd
000003b0: 7558 08bc 8219 3a3b acad c530 be8f 10bd
000003c0: f61e 323d bd83 1f3d 06cb 26bc e9fd 20bd
000003d0: 6621 82bd 2910 04bd ce26 183d 526c 2a3d
000003e0: 35d1 76bd dd66 a63d dc5f 27b5 ff7d a9bd
000003f0: 0e6f babd efb1 f1bc 9945 6cbd cd11 163b

convs.0.bias f4 [64]
0.0027248445 0.0057141148 0.0061398917 0.008870738 0.006300899 0.0063544633 0.0045824065 0.10905043
0.0036992913 0.011396442 0.006103195 0.005414103 0.0031317414 -0.00011985712 -2.3628951e-11 0.0027935933
0.0027070844 -1.3418938e-08 0.0064425925 0.0048437067 0.032305077 0.004285312 0.0038800752 -9.0850726e-08
0.01142562 0.08251898 0.01015391 0.005867975 0.008558763 0.008987665 0.008980453 -0.00019192866
0.0064443327 0.0080151055 -0.063356236 -0.0025936128 0.0076767434 0.00545697 0.007467575 0.0052686827
0.0036774485 0.03289233 -2.7299473e-07 0.0074603977 0.00819364 0.0048305485 -0.0007419414 0.0026257972
0.0070145936 0.008441695 0.0062162974 0.0050769076 0.008565364 0.0048070373 0.0050053988 0.006535548
0.0056225285 0.002658968 -0.037457027 0.0045227148 0.0057436596 0.005731305 0.0070616337 0.053302936
00000000: 4e93 323b 783d bb3b 2531 c93b 9256 113c
00000010: c677 ce3b 1a39 d03b 0328 963b d555 df3d
00000020: cf6f 723b 24b8 3a3c 4ffd c73b ca68 b13b
00000030: e73d 4d3b cd5b fbb8 abd7 cfad b814 373b
00000040: 5769 313b 1d89 66b2 621c d33b f5b7 9e3b
00000050: 5452 043d cd6b 8c3b dc48 7e3b b719 c3b3
00000060: 8632 3b3c b6ff a83d 965c 263c 2448 c03b
00000070: 0e3a 0c3c 0041 133c c022 133c 7540 49b9
00000080: fb2a d33b ca51 033c eac0 81bd 9af9 29bb
00000090: 318d fb3b 62d0 b23b 8fb2 f43b eaa4 ac3b
000000a0: 5901 713b 1cba 063d 1c90 92b4 5a76 f43b
000000b0: 9e3e 063c 9449 9e3b d87e 42ba 9115 2c3b
000000c0: adda e53b 094f 0a3c 15b2 cb3b 305c a63b
000000d0: be55 0c3c 5a84 9d3b 5404 a43b 2628 d63b
000000e0: 303d b83b 1542 2e3b 8a6c 19bd 4833 943b
000000f0: 4f35 bc3b accd bb3b 4765 e73b 2e54 5a3d

convs.1.weight f4 [64, 10]
19.872252 -9.921405 -10.086343 18.515823 -14.540176 9.07384 15.28969 -14.673254
10.765486 14.959208 17.695494 11.860348 12.285047 -14.588481 -13.386278 -12.813607
17.315937 11.738253 -1.6763374 -15.737563 12.26848 -10.123895 7.8802633 15.549229
-10.963028 10.213206 -13.8086 9.0645895 -9.963797 14.124409 2.5490932 8.617252
-9.006302 -1.1547219 3.220441 -6.529147 -3.4877546 -6.7427516 8.208505 -6.0455327
4.8172956 -7.5720778 9.457948 3.5621543 5.1284575 4.8276324 -6.9899607 -7.8283396
-7.6094975 -6.697081 9.2139 -8.975001 -13.093217 9.841136 6.0999737 10.2489395
-8.255506 -7.3341923 -6.470381 0.58841026 -2.3485832 9.919144 -8.116627 -2.320571
6.006757 -2.6337078 -7.6236496 -5.479647 -10.0339575 -2.6983774 -0.72198135 0.12991908
-0.18000774 0.3888895 0.04695783 0.9891455 -0.91881233 1.243431 -0.09380163 0.9694095
13.924482 -7.570975 2.1066878 12.626053 -13.893991 13.233924 14.618078 13.413664
-4.603688 3.2645745 -9.935791 -2.5555747 -4.0585318 3.0424798 -2.089756 12.661717
0.17760342 10.398717 -2.7552955 10.5201645 3.091776 -9.337115 6.8789654 2.916131
2.6970637 9.992527 -6.197795 8.5006485 -7.465738 -9.577738 -14.259475 -6.921968
-11.244865 10.583521 -4.0643034 15.948081 7.727098 14.379091 -4.2392364 14.422323
-17.470526 -8.540637 -9.635097 18.109436 6.157317 9.2389345 -9.6666565 -6.5441933
-4.481278 -11.542977 -0.3334384 0.049167577 -0.08579175 0.0754076 0.017649855 -0.3930998
-0.0020324164 -0.14216864 -0.14981742 0.3771243 -0.06424185 -0.15614024 0.35825148 -0.10537455
0.028057743 -0.0332458 -0.09632002 0.14013644 0.04548517 0.10463833 9.641397 -8.334117
9.967672 5.3456974 4.976439 1.1097152 -6.902245 -9.157574 -6.247398 -6.371822
-4.040324 8.616561 -7.467467 0.19280814 5.858983 -4.947311 -7.6290154 -5.6550436
-7.965503 -2.5877547 0.12469607 -0.029615803 -0.30871147 -0.2951692 0.02758657 0.22315654
0.14749606 -0.19894838 -0.13742582 -0.33670494 3.0673308 10.136448 10.389659 -4.895916
2.9742758 -6.6545696 -6.5184274 -7.335883 -7.9489694 -7.4893856 5.8818707 -5.8675904
9.666201 2.1659665 4.664921 -1.2430302 -5.7539735 -7.5139585 -7.4044065 -4.841577
-1.7895879 -0.1856245 -0.5648093 1.0632567 -0.3028852 0.5322688 -3.312507 3.4788046
-0.83558744 4.30589 -4.703391 8.329207 -7.360725 -2.009656 5.98448 0.19518575
-7.2752023 -6.0474124 -8.790208 -4.434881 -15.637616 13.474653 -10.457119 -20.953968
-12.668635 16.347837 14.0385475 -15.840047 9.953432 15.043499 0.0028288418 0.23358105
0.029290546 -0.10466652 0.08215993 -0.36503178 0.22435476 0.25533092 -0.32348323 0.0005840616
0.284789 10.254409 8.815712 -3.5594628 -0.7042904 -6.5553284 -5.955704 5.5165358
-7.5899396 -7.4133506 -1.2460182 -0.017461829 -0.21652615 0.09246296 -0.098697044 0.87798315
00000000: 5ffa 9e41 13be 1ec1 a961 21c1 6820 9441
00000010: 90a4 68c1 732e 1141 92a2 7441 a6c5 6ac1
00000020: 6e3f 2c41 ea58 6f41 5f90 8d41 fcc3 3d41
00000030: 8d8f 4441 6b6a 69c1 322e 56c1 8904 4dc1
00000040: 0a87 8a41 e2cf 3b41 3992 d6bf 0fcd 7bc1
00000050: b24b 4441 79fb 21c1 1e2b fc40 a4c9 7841
00000060: 9068 2fc1 4b69 2341 07f0 5cc1 8f08 1141
00000070: b66b 1fc1 94fd 6141 5824 2340 44e0 0941
00000080: d019 10c1 edcd 93bf b51b 4e40 c6ee d0c0
00000090: 5f37 5fc0 9fc4 d7c0 0956 0341 0175 c1c0
000000a0: 4927 9a40 764e f2c0 c153 1741 56fa 6340
000000b0: 531c a440 f77b 9a40 c2ad dfc0 c281 fac0
000000c0: 0181 f3c0 7d4e d6c0 226c 1341 9b99 0fc1
000000d0: d17d 51c1 4b75 1d41 fc32 c340 a8fb 2341
000000e0: 8d16 04c1 b4b1 eac0 5c0d cfc0 0ea2 163f
000000f0: 304f 16c0 d0b4 1e41 b4dd 01c1 3c84 14c0
00000100: 5a37 c040 ab8e 28c0 f0f4 f3c0 4559 afc0
00000110: 178b 20c1 37b2 2cc0 c5d3 38bf 8209 053e
00000120: f353 38be 861c c73e db56 403d a438 7d3f
00000130: 4937 6bbf bf28 9f3f 121b c0bd 392b 783f
00000140: aeca 5e41 6d45 f2c0 f9d3 0640 5004 4a41
00000150: ca4d 5ec1 27be 5341 a6e3 6941 5e9e 5641
00000160: 6951 93c0 caee 5040 00f9 1ec1 898e 23c0
00000170: 7edf 81c0 fdb7 4240 90be 05c0 6596 4a41
00000180: acdd 353e 2561 2641 c356 30c0 9852 2841
00000190: a8df 4540 d364 15c1 7c20 dc40 e4a1 3a40
000001a0: b19c 2c40 64e1 1f41 5654 c6c0 a802 0841
000001b0: 53e7 eec0 6a3e 19c1 cf26 64c1 c380 ddc0
000001c0: f8ea 33c1 1a56 2941 c60e 82c0 572b 7f41
000001d0: 6344 f740 c210 6641 d3a7 87c0 d6c1 6641
000001e0: a3c3 8bc1 73a6 08c1 5b29 1ac1 20e0 9041
000001f0: be08 c540 add2 1341 a0aa 1ac1 086a d1c0
00000200: a166 8fc0 09b0 38c1 70b8 aabe f163 493d
00000210: 96b3 afbd 4d6f 9a3d 6e96 903c 6144 c9be
00000220: 4a32 05bb a894 11be bd69 19be 7016 c13e
00000230: 3b91 83bd 3ae3 1fbe bd6c b73e 9dce d7bd
00000240: 5ad9 e53c bf2c 08bd 6e43 c5bd ed7f 0f3e
00000250: a84e 3a3d 9f4c d63d 2a43 1a41 8b58 05c1
00000260: 967b 1f41 f40f ab40 fd3e 9f40 260b 8e3f
00000270: 31df dcc0 6c85 12c1 afea c7c0 f7e5 cbc0
00000280: 564a 81c0 6fdd 0941 7df5 eec0 7f6f 453e
00000290: ca7c bb40 5f50 9ec0 e520 f4c0 1ef6 b4c0
000002a0: 67e5 fec0 c69d 25c0 a760 ff3d d79c f2bc
000002b0: 6e0f 9ebe 6b20 97be 3bfd e13c 2683 643e
000002c0: 3509 173e 20b9 4bbe 5bb9 0cbe 9764 acbe
000002d0: 264f 4440 e42e 2241 0b3c 2641 58ab 9cc0
000002e0: 895a 3e40 3cf2 d4c0 f596 d0c0 8ebf eac0
000002f0: f55d fec0 0ca9 efc0 4938 bc40 4dc3 bbc0
00000300: c2a8 1a41 329f 0a40 0847 9540 9d1b 9fbf
00000310: 8d20 b8c0 5972 f0c0 e6f0 ecc0 33ee 9ac0
00000320: 3711 e5bf 5914 3ebe 5897 10bf cc18 883f
00000330: c513 9bbe c542 083f 1d00 54c0 bca4 5e40
00000340: 0fe9 55bf dac9 8940 2e82 96c0 6f44 0541
00000350: 0f8b ebc0 349e 00c0 dc80 bf40 c6de 473e
00000360: 75ce e8c0 6784 c1c0 b1a4 0cc1 8cea 8dc0
00000370: ad33 7ac1 2e98 5741 5c50 27c1 baa1 a7c1
00000380: bbb2 4ac1 5fc8 8241 e49d 6041 d570 7dc1
00000390: 4241 1f41 2cb2 7041 1764 393b df2f 6f3e
000003a0: baf2 ef3c 675b d6bd 7743 a83d 72e5 babe
000003b0: 41bd 653e bcba 823e 989f a5be b61b 193a
000003c0: ddcf 913e 0f12 2441 280d 0d41 3dce 63c0
000003d0: 604c 34bf 40c5 d1c0 2195 bec0 7687 b040
000003e0: c9e0 f2c0 2b3a edc0 867d 9fbf 1c0c 8fbc
000003f0: 08b9 5dbe 385d bd3d ad21 cabd 81c3 603f

convs.1.bias f4 [10]
-1.622375 0.23713084 -0.30150202 -0.8755559 1.3901395 -2.060409 -1.1042813 -0.4553043
0.4140991 -0.60156274
00000000: fca9 cfbf 6dd2 723e 795e 9abe 6e24 60bf
00000010: 17f0 b13f bedd 03c0 1759 8dbf a51d e9be
00000020: cc04 d43e 0400 1abf
