neuroc_pygs/sec6_cutting/out_cutting_method_res/gcn_amazon-photo_best_model.pth (torch_old, 193925 bytes, 4 tensors)

convs.0.weight f4 [745, 64]
0	0xbdc0360b	-0.09385308
1	0x3a32bde3	0.00068184565
2	0xbdb712e4	-0.0893915
3	0x3c2b387a	0.010450477
4	0x3dc5c830	0.09657323
5	0xb43eba31	-1.7762865e-07
6	0x3cf5eedd	0.030021125
7	0x3d04c503	0.032414448
8	0xbe225efb	-0.15856545
9	0xbc1a78db	-0.009428228
10	0x3c3999f1	0.011328206
11	0xbbaba05d	-0.0052376227
12	0x96231a72	-1.317538e-25
13	0x3e41c97a	0.18924513
14	0x1623ef84	1.3242613e-25
15	0x162266d4	1.3118703e-25
16	0xbdd2b9f2	-0.102893725
17	0x16302395	1.4228394e-25
18	0x3da798bf	0.08183431
19	0xbc506830	-0.012720153
20	0x96472c72	-1.6089116e-25
21	0x160cbcd1	1.136869e-25
22	0x3c91c9f9	0.017796503
23	0x96609a7b	-1.8143321e-25
24	0x96a1cde5	-2.614089e-25
25	0x308f382e	1.0420587e-09
26	0xb854679c	-5.0641233e-05
27	0x38ea8eb8	0.00011184573
28	0x3d87cde6	0.06631069
29	0x9614a127	-1.2006196e-25
30	0x3c71bd4e	0.014754606
31	0x170ce4d2	4.552525e-25
32	0x3cdcfad5	0.026975075
33	0xbdd920ef	-0.10601985
34	0x16e3c4bb	3.6797982e-25
35	0x3ce54772	0.02798817
36	0xbc34c008	-0.011032112
37	0x3c0268f1	0.00795959
38	0xbdc82b29	-0.09773857
39	0x950488f0	-2.6765212e-26
40	0xbda52b3a	-0.080648854
41	0x3cbf8419	0.023378419
42	0xbc6aa66b	-0.014321904
43	0x3cc3ebeb	0.023916205
44	0xbde599a2	-0.11210944
45	0x96398b32	-1.4988103e-25
46	0xbd517f6b	-0.051146906
47	0x3e2c4052	0.16821411
48	0x16c25ee7	3.1402282e-25
49	0xba5b0765	-0.0008355289
50	0xbd178c6b	-0.036999147
51	0x9689e33f	-2.2276956e-25
52	0x3e222208	0.15833294
53	0x3bfc260e	0.007694966
54	0x2d26d1ab	9.482563e-12
55	0x3951ef87	0.00020021024
56	0x3e25a475	0.16176017
57	0x3ce6b21a	0.028161097
58	0xbddbcea0	-0.1073277
59	0x3dc59103	0.096467994
60	0x3cc06882	0.023487333
61	0x96a4abe0	-2.6604097e-25
62	0xbc8c5fdd	-0.017135555
63	0xa75f7d5c	-3.1015424e-15
64	0x3e082da5	0.13298662
65	0xb9d3b559	-0.0004038017
66	0x3de4a157	0.11163586
67	0x3c395481	0.011311651
68	0xbcca7878	-0.024715647
69	0x33e9dd7a	1.0890194e-07
70	0x3d502896	0.050819956
71	0x3d34a92f	0.04410666
72	0xbc4bcbcc	-0.012438726
73	0x3cd4fb92	0.025998864
74	0xbdc07a5f	-0.093983404
75	0xbd9e54c3	-0.07731011
76	0x9686cf43	-2.1779668e-25
77	0x3d45eee4	0.048323527
78	0x1667478f	1.8682611e-25
79	0x169411b7	2.392187e-25
80	0x3de65c03	0.112480186
81	0x961738fd	-1.2215665e-25
82	0x3cbb457b	0.02286028
83	0x3beee1ef	0.007290117
84	0x16b2b68d	2.8872657e-25
85	0x96f5fa7e	-3.9739968e-25
86	0x3c20ffb7	0.009826592
87	0x96d166ce	-3.383065e-25
88	0x1583fc0a	5.3308126e-26
89	0xaf92290d	-2.6586414e-10
90	0xb8d63759	-0.000102146245
91	0x3a2e0798	0.0006638705
92	0x3d1c8893	0.038216185
93	0x95e80150	-9.3706125e-26
94	0xbd44ac22	-0.04801572
95	0x96939a5e	-2.384655e-25
96	0xbd4857bb	-0.04891179
97	0x3d09e5cd	0.03366642
98	0x9695f432	-2.4226357e-25
99	0x3b98fb46	0.004668626
100	0x3ded4463	0.11585309
101	0x3e072448	0.13197434
102	0x3c789d4e	0.015174223
103	0x168c5fd2	2.267869e-25
104	0x3a6d5278	0.00090531213
105	0xbd17260f	-0.03690153
106	0xbdc793d4	-0.09744993
107	0x3c54c65d	0.012986747
108	0x3bf4e888	0.007474009
109	0x16613084	1.8190664e-25
110	0xbca1759c	-0.0197094
111	0x3d9b51e7	0.07583981
112	0x16a418a5	2.6511182e-25
113	0x3c4f42ca	0.012650201
114	0xbdfe54c2	-0.1241851
115	0x16aa3804	2.7500332e-25
116	0x3d8a32ce	0.067479715
117	0x3c71f999	0.014768981
118	0xac188039	-2.1671677e-12
119	0x3adcb3ad	0.0016838216
120	0x3daefb31	0.08544005
121	0x3cc0379d	0.023464018
122	0x3c05a7ab	0.008157651
123	0xbd4c0579	-0.049809907
124	0x3ca2220a	0.019791622
125	0x96f4c8ae	-3.9546973e-25
126	0x3db8acfd	0.0901737
127	0x25b0337f	3.0566028e-16
128	0xbd5e2e62	-0.054243453
129	0xb9a0b10b	-0.00030649485
130	0xbd96389e	-0.073350176
131	0x3d15804b	0.036499303
132	0x3bbf76cd	0.0058430196
133	0x3283ee1a	1.5358683e-08
134	0x3e1d0e2f	0.15337442
135	0x3cacea0c	0.021107696
136	0xbd58598f	-0.052819785
137	0xbe0330e8	-0.12811625
138	0x3e4c4a68	0.19950259
139	0xbe0c6287	-0.1370946
140	0x16aa5ec0	2.7524777e-25
141	0x3e0cec88	0.13762105
142	0x150da183	2.8602134e-26
143	0x16800e7a	2.0688651e-25
144	0x3de784ab	0.11304601
145	0x165e6f76	1.7968188e-25
146	0x3df072a6	0.117406175
147	0xbd807921	-0.062731035
148	0x14fc942b	2.550394e-26
149	0x95d6f9ac	-8.6827824e-26
150	0x3bbc73cd	0.005751109
151	0x96d3aa69	-3.4196432e-25
152	0x160f82cb	1.1592719e-25
153	0x303cd781	6.870025e-10
154	0x383a2d3e	4.438799e-05
155	0x386d1e70	5.653355e-05
156	0xbd28ee21	-0.041242722
157	0x15bf5464	7.727743e-26
158	0xbe09edfc	-0.1346969
159	0x1628c38a	1.3632633e-25
160	0xbd97b073	-0.07406702
161	0x3dafb1f7	0.08578866
162	0x967f60f2	-2.0629327e-25
163	0x3c0d6518	0.00863006
164	0x3dc42b1f	0.09578537
165	0x3e3245ef	0.1740949
166	0xbdcb75a7	-0.0993455
167	0x967420de	-1.9720534e-25
168	0x3d62a7da	0.055335857
169	0x3c7e1dc1	0.015510024
170	0xbe1ae78e	-0.15127394
171	0x3d738b27	0.059458878
172	0x3d05d106	0.032670043
173	0x960facf2	-1.160602e-25
174	0x3d033fb3	0.03204317
175	0x3d642acc	0.055704877
176	0x16413ca4	1.5609551e-25
177	0x3bad988e	0.005297727
178	0xbe24c38a	-0.16090217
179	0x96ec8547	-3.8211966e-25
180	0xbc604084	-0.013687257
181	0x3abccf96	0.0014405127
182	0x2c493f7d	2.859906e-12
183	0xb8c88b1d	-9.562655e-05
184	0x3d6c752a	0.057728924
185	0x3d86d6a9	0.06583912
186	0x3d2e4802	0.04254914
187	0x3d3af4a3	0.04564346
188	0x3d56fd2b	0.052487534
189	0x16969a15	2.4331046e-25
190	0x3dae383a	0.08506818
191	0xa8d0a3ec	-2.3163729e-14
192	0xbcb58aff	-0.022161005
193	0x39e0cd03	0.00042877355
194	0xbc74e9a8	-0.014948286
195	0x3e312a73	0.1730135
196	0x3d5decd9	0.054180954
197	0xb366a05c	-5.3696894e-08
198	0x3daf7433	0.08567085
199	0x3d9ce470	0.076607585
200	0xbe47b217	-0.1950153
201	0x3dc70ae7	0.09718876
202	0xbc045f71	-0.008079396
203	0xbd468995	-0.048471052
204	0x96985c70	-2.461526e-25
205	0x3d020b61	0.031749133
206	0x953006ed	-3.554838e-26
207	0x9641e8d3	-1.5663882e-25
208	0xbe208916	-0.15677294
209	0x1662bb69	1.8315271e-25
210	0xbcd2dbcb	-0.025739571
211	0xbe1469c4	-0.14493471
212	0x96dac8fe	-3.5346643e-25
213	0x15993d67	6.1893084e-26
214	0xbb835134	-0.004007483
215	0x1697d354	2.4528733e-25
216	0x16e027a2	3.6214164e-25
217	0xaf234c19	-1.4851799e-10
218	0xb949060f	-0.00019171111
219	0xb9c3a6de	-0.00037317624
220	0x3d62f1da	0.05540643
221	0x16f2aab1	3.920493e-25
222	0x3b0d63f9	0.002157448
223	0x9595b54b	-6.046665e-26
224	0xbdbafe22	-0.09130503
225	0xbd9a7f52	-0.07543816
226	0x15eaeb03	9.488263e-26
227	0x3e4c059e	0.19924018
228	0x390cdfdc	0.00013434835
229	0x3cbe8b68	0.023259833
230	0xbe0601ad	-0.13086577
231	0x16b950e1	2.9939404e-25
232	0xbdac5fcf	-0.084167115
233	0xbc17f563	-0.009274813
234	0xbd6d74f1	-0.057972852
235	0xbcb966cb	-0.022632023
236	0xbe01a0a6	-0.12658939
237	0x16d88614	3.4981297e-25
238	0xbdbd8325	-0.092535295
239	0x3d9fbdb6	0.07799856
240	0x96fbdc68	-4.0690333e-25
241	0xbc6c6f4a	-0.01443083
242	0xbdc55511	-0.09635366
243	0x945ab4fd	-1.1041881e-26
244	0x3df4aae4	0.11946657
245	0x3b71bfd5	0.0036888022
246	0xad0af356	-7.898423e-12
247	0x3a35aea3	0.0006930625
248	0x3d96070b	0.07325562
249	0xbe0be931	-0.13663174
250	0xbde9b39e	-0.114112124
251	0x3cda7f3e	0.026672002
252	0xbcb1f443	-0.021722918
253	0x15de5d7c	8.981258e-26
254	0x3e04e69d	0.12978597
255	0x288ddc9e	1.5749822e-14

convs.0.bias f4 [64]
0	0x3c5d1c8b	0.013495575
1	0xbd52f0fa	-0.051499344
2	0x3c83ace9	0.01607366
3	0x3c9d6f1e	0.019218024
4	0x3cca98cf	0.024731068
5	0xb793c8d0	-1.7617276e-05
6	0x3bcf808c	0.0063324627
7	0x3c7bddb8	0.015372686
8	0x3c0c1ae2	0.008551331
9	0x3c99b808	0.01876451
10	0x3ba2e03d	0.004970579
11	0x3c45288a	0.012033591
12	0xb92185c4	-0.00015403988
13	0x3bf2511c	0.007394923
14	0xb94776cf	-0.00019022379
15	0xb8a749b0	-7.976906e-05
16	0x3b2a187b	0.0025954533
17	0xb8efac9d	-0.0001142856
18	0x3be3b665	0.0069492334
19	0x3c3a5d73	0.011374819
20	0xb107a757	-1.9740207e-09
21	0xba19dcf2	-0.000586941
22	0x3dbeb384	0.09311584
23	0xb79847f7	-1.8153323e-05
24	0xb8abf2fb	-8.199174e-05
25	0xb6d167bb	-6.240761e-06
26	0xbc9f2f75	-0.019431809
27	0xbd451b11	-0.048121516
28	0x3c05a1f3	0.0081562875
29	0xb90e5a01	-0.00013575704
30	0x3c1818cf	0.009283259
31	0xb9b23e6e	-0.0003399732
32	0x3c5192c0	0.012791336
33	0xbb405550	-0.0029347725
34	0xb9041654	-0.00012596819
35	0x3ca75d9e	0.020430382
36	0x3c9b6b3d	0.018972034
37	0x3c8fe090	0.017563134
38	0x3c0e8c53	0.008700448
39	0xb39f0c43	-7.406245e-08
40	0x3bb2a248	0.0054514743
41	0x3c10f90f	0.008848443
42	0x3c5a0719	0.013307356
43	0x3ab93cbf	0.0014132484
44	0x3babd443	0.0052438094
45	0xb9101573	-0.000137409
46	0x38d38d39	0.00010087569
47	0x3cb41ff3	0.02198789
48	0xbb43242e	-0.0029776203
49	0x3e0cbf7f	0.13744925
50	0x3c5cda49	0.013479778
51	0xb7e5c1d3	-2.7389184e-05
52	0x3ca442a3	0.020051306
53	0x3e2dc26c	0.16968697
54	0xb4e12154	-4.1933765e-07
55	0x3b158b47	0.0022818611
56	0x3ccc1fa2	0.024917427
57	0x3b726dae	0.0036991644
58	0x3b1e6f92	0.0024175388
59	0x3bc9cef3	0.0061587035
60	0x3a8a9860	0.0010573976
61	0xba1b8c8c	-0.0005933724
62	0x3c9bc574	0.019015051
63	0xb620d131	-2.3963623e-06

convs.1.weight f4 [64, 8]
0	0x4082441f	4.0708156
1	0x40d108ca	6.532323
2	0xc0a5c17d	-5.179869
3	0xc0db0071	-6.843804
4	0xc0d05e70	-6.511528
5	0xc0c982fa	-6.2972383
6	0x40c0f598	6.0299797
7	0x408427ea	4.1298723
8	0xbc6d0f10	-0.014468923
9	0xbd73768f	-0.05943924
10	0x3e63ecb0	0.22258258
11	0x3da757d9	0.081710525
12	0xbe9ecec4	-0.31017125
13	0x3dd81b25	0.105520524
14	0x3dc5baf0	0.09654796
15	0xbe953ebd	-0.29149428
16	0x407866d1	3.8812754
17	0x40d93b09	6.7884564
18	0xc0b9f69b	-5.811353
19	0xc0f61adf	-7.69078
20	0xc0f2503d	-7.5722947
21	0xc0bbf17c	-5.873228
22	0x40bb1d41	5.847321
23	0x4068eda3	3.6395042
24	0x409ce91c	4.9034557
25	0x409c365b	4.881635
26	0xc0c1c6b7	-6.055507
27	0x40cd17e0	6.4091644
28	0xc0d47dd5	-6.6403604
29	0x40b938a5	5.7881646
30	0xc09ef588	-4.967472
31	0x403bd1a8	2.9346714
32	0xc0f65a20	-7.6985016
33	0x4004f910	2.0777016
34	0x409c0ff7	4.876949
35	0xbff5d9b3	-1.9207062
36	0x3f936277	1.1514424
37	0x40cdcf6e	6.431571
38	0xc0039904	-2.0562143
39	0xc078a94f	-3.8853338
40	0x3eb7bb44	0.3588506
41	0x3c1d6c36	0.009608319
42	0x3e529dd8	0.20568025
43	0x3e1e2d5d	0.15446992
44	0xbec70ce6	-0.38877028
45	0x3e612d0a	0.21989837
46	0x3e884514	0.26615202
47	0x3e58fa2f	0.21189187
48	0x40f29a5d	7.581343
49	0x4012d645	2.294328
50	0x40c1e3bf	6.059051
51	0x40ea7a3c	7.327421
52	0xc0f0c267	-7.5237308
53	0x40985319	4.7601438
54	0xc0cd6099	-6.4180417
55	0xc0b9d05f	-5.806686
56	0x40237af6	2.55438
57	0x409a2966	4.8175535
58	0x4053e094	3.3105822
59	0xbfaa8b63	-1.3323787
60	0xc0a46cb7	-5.138271
61	0x4073ddb8	3.8104076
62	0xc0796fab	-3.8974407
63	0xc071aa93	-3.776036
64	0x40d6311c	6.693495
65	0xc0c33019	-6.0996213
66	0xc0a6f14d	-5.2169557
67	0xc0ae951e	-5.455703
68	0xbee0fc58	-0.43942523
69	0xc0ba648f	-5.824775
70	0x40b65274	5.697565
71	0x4125ad2b	10.354777
72	0x40812e7a	4.0369234
73	0x40ced9ec	6.464102
74	0xc0a9745f	-5.2954555
75	0xc0d621c5	-6.6916223
76	0xc09bddd2	-4.8708277
77	0x40a93b35	5.2884774
78	0xc043b006	-3.0576186
79	0xc0243cd1	-2.566212
80	0xc11afc01	-9.686524
81	0xc11d38bf	-9.826354
82	0x4119026c	9.563091
83	0x41192251	9.570878
84	0xc1294994	-10.580463
85	0x411ff7d6	9.998007
86	0xc1023550	-8.138016
87	0x41393a97	11.576804
88	0xc0aea293	-5.4573455
89	0xc08b39cc	-4.3508053
90	0xc05f2618	-3.4867
91	0xc0d5c3c6	-6.680148
92	0x409c7468	4.8892097
93	0x40c44cad	6.13436
94	0x40ad7d5f	5.421554
95	0xbf3407d3	-0.7032444
96	0xbe89e86e	-0.26935142
97	0x3e35e539	0.17763223
98	0x3df7a01b	0.120910846
99	0x3e4ebb39	0.20188607
100	0xbe9a6625	-0.30156055
101	0xbd644ce0	-0.055737376
102	0xbe39d5a0	-0.18147898
103	0x3e30e547	0.17274962
104	0xc10628bb	-8.384944
105	0xc040475d	-3.0043557
106	0x410e391d	8.888944
107	0x40ea6aa9	7.32552
108	0x4114a0b7	9.289237
109	0xc1164372	-9.391466
110	0xc10a97c9	-8.662057
111	0xc0810b13	-4.032602
112	0x3dc3eb90	0.09566414
113	0xbd7e02f1	-0.062014524
114	0x3e2012e5	0.15632208
115	0xbe405980	-0.18784142
116	0x3e42df10	0.19030404
117	0x3d828b6d	0.063742496
118	0xbd81905d	-0.06326363
119	0xbe60ba47	-0.21946059
120	0x3e511a58	0.20420206
121	0xbe094ec8	-0.13408959
122	0x3e59fa29	0.21286835
123	0x3c873e5c	0.016509227
124	0x3da9af43	0.08285382
125	0xbe8d5619	-0.2760475
126	0x3e71a688	0.23598683
127	0x3ba0f111	0.00491155
128	0x40fa4ec4	7.822115
129	0xc0a1edb3	-5.060266
130	0x40ce721e	6.4514303
131	0xc09e173b	-4.9403358
132	0xc0c56f82	-6.169862
133	0xc0c896d8	-6.2684135
134	0x40a22efe	5.0682364
135	0xc10d8f00	-8.847412
136	0xbe7ef9ef	-0.2490003
137	0xbe0646e2	-0.13112977
138	0xbdaa0481	-0.0830164
139	0xbe03cbad	-0.12870665
140	0xbe99eb27	-0.3006222
141	0x3dbdb1fc	0.092624635
142	0xbe45734d	-0.19282265
143	0xbdf7e653	-0.12104478
144	0xc083e86a	-4.122121
145	0xc092616c	-4.5743923
146	0x40ab42a6	5.351886
147	0x40cc6ac4	6.388033
148	0x40ace7ac	5.4032803
149	0xc0aa5eea	-5.324086
150	0xc010558d	-2.2552216
151	0xbf4c32c1	-0.79764944
152	0xc09636b7	-4.694179
153	0xc07879aa	-3.8824258
154	0x3fa558dd	1.2917744
155	0xc0dee128	-6.964985
156	0x40b0801f	5.51564
157	0xc0bc98e0	-5.8936615
158	0x40a9a87f	5.3018184
159	0x3f4c162f	0.7972135
160	0xbe94b780	-0.2904625
161	0xbcae2b72	-0.02126095
162	0xbc3c1f56	-0.01148208
163	0xbd592523	-0.053013932
164	0x3e22a9cd	0.15885086
165	0x3d779c63	0.060451876
166	0xbda7b884	-0.081894904
167	0x3e0f1d64	0.13976055
168	0x3dab77b4	0.08372441
169	0x3e29d126	0.1658369
170	0x3d8ab21a	0.067722514
171	0x3e2a7e18	0.16649663
172	0x3d3599dd	0.04433619
173	0xbccba400	-0.024858475
174	0xbcae83b1	-0.02130303
175	0x3e592e59	0.21209086
176	0x3deb893b	0.11500784
177	0x40017460	2.022728
178	0x3f30dce7	0.6908707
179	0x3e1ddf2f	0.15417169
180	0xbe1474e5	-0.14497717
181	0xbfd30e3c	-1.6488719
182	0xc00cdc1c	-2.2009344
183	0xbca45cbe	-0.020063754
184	0x3dc983f6	0.09839623
185	0x3cc409fb	0.02393054
186	0xbe8e47b1	-0.2778907
187	0x3e7234e5	0.2365299
188	0xbc3c684d	-0.011499477
189	0xbdf8ff1c	-0.12158033
190	0xbdd904f9	-0.105966516
191	0xbe93752e	-0.28800339
192	0xbe3dc24f	-0.18531154
193	0xbd25da17	-0.04049119
194	0x3be897e6	0.007098186
195	0x3e5183a8	0.20460379
196	0xbe3b7291	-0.18305422
197	0x3df3c0fa	0.11902042
198	0x3d9a0054	0.07519594
199	0x3e4c7e62	0.19970086
200	0xbdbbd012	-0.09170546
201	0x3edcb974	0.4311024
202	0xbee148ef	-0.44000956
203	0xbe559435	-0.20857318
204	0x3e0fee1f	0.1405568
205	0x3e625af1	0.22105004
206	0x3e68f284	0.22748762
207	0x3e2d585a	0.16928235
208	0xbe8a7ec5	-0.27049842
209	0x3ebe960d	0.37223855
210	0x3e8dbe26	0.27684134
211	0xbe2e5464	-0.1702438
212	0xbec38b50	-0.38192225
213	0x3d8f5f22	0.07000567
214	0x3e09d384	0.13459593
215	0x3e2a1a68	0.16611636
216	0xbe9eeae9	-0.31038597
217	0xbb1e71fe	-0.0024176831
218	0x3e0a8a2b	0.1352927
219	0xbe63776d	-0.22213526
220	0x3e6a0e68	0.22857058
221	0xbe506f41	-0.2035494
222	0x3d674000	0.05645752
223	0x3e2491c4	0.1607123
224	0xc0586575	-3.3811924
225	0x40db27be	6.8486013
226	0x40a765ff	5.2312007
227	0xc0f5bcf4	-7.6793156
228	0xc0900dbd	-4.501677
229	0x40a8e86c	5.278372
230	0xc06a8476	-3.6643348
231	0xc0b1f508	-5.561161
232	0x3e5502ce	0.20801851
233	0x3e3a4748	0.18191254
234	0x3d4ef3fe	0.050525658
235	0x3df2c79c	0.11854479
236	0xbcb63cc3	-0.02224577
237	0x3e3e0f51	0.1856053
238	0xbe45bcff	-0.19310378
239	0xbe5b8e3a	-0.21440974
240	0xc0b29b8d	-5.581488
241	0xc07bd46f	-3.934841
242	0xc08cd692	-4.4011927
243	0xc0b21547	-5.5650973
244	0x409866fa	4.7625704
245	0x40aaf8fb	5.342893
246	0x40966c63	4.700731
247	0xc0736525	-3.8030484
248	0x3de51c89	0.11187083
249	0xbc2e62ea	-0.0106437
250	0x3e478d7c	0.19487566
251	0x3e381b1b	0.1797909
252	0x3e88594e	0.26630634
253	0x3b355189	0.0027667007
254	0x3d82159c	0.06351778
255	0x3d897c4f	0.06713163

convs.1.bias f4 [8]
0	0xbf605949	-0.8763624
1	0x3f2ea487	0.682198
2	0xbfafd351	-1.3736364
3	0xbe9f0968	-0.31061864
4	0x3e46805b	0.19384901
5	0xbe75e77e	-0.24014089
6	0x3f530d5d	0.82442266
7	0xbee5e7b7	-0.44903347
