neuroc_pygs/sec6_cutting/out_cutting_method_res/gcn_pubmed_best_model.pth (torch_old, 129904 bytes, 4 tensors)

convs.0.weight f4 [500, 64]
0	0xb4f21d36	-4.5097266e-07
1	0xbe291605	-0.16512306
2	0xbe01700d	-0.126404
3	0xbebf99b5	-0.37421957
4	0xbe636b2d	-0.22208853
5	0xbe5583bb	-0.20851032
6	0xbe04994d	-0.12949105
7	0xb5ca5fef	-1.5078093e-06
8	0xb46814ce	-2.1614252e-07
9	0xbe56d24a	-0.20978656
10	0xbe0f13e7	-0.13972436
11	0xbf5469b5	-0.82973796
12	0x34b382fb	3.343665e-07
13	0xb400c26c	-1.1991659e-07
14	0x3eed65e6	0.46366805
15	0xbf511d82	-0.8168565
16	0x3f8f2cd9	1.1185561
17	0xbe42cde0	-0.19023848
18	0x3f929359	1.1451217
19	0xbeccc7a0	-0.39996052
20	0x3f435764	0.7630522
21	0xbf543b6c	-0.8290317
22	0xb2b984c8	-2.1597216e-08
23	0xbec7844d	-0.38968125
24	0xb4167054	-1.4010703e-07
25	0x34abdf9f	3.2013938e-07
26	0x34c898b1	3.7364e-07
27	0xbe0318ee	-0.12802479
28	0xb4d7b76f	-4.0180336e-07
29	0xbe0ff13b	-0.14056866
30	0xbf4fc12e	-0.81154144
31	0x3f9213db	1.141231
32	0xbea863c1	-0.32888606
33	0xbf520c22	-0.82049763
34	0xbe9ed052	-0.3101831
35	0x3eda7f0e	0.4267506
36	0xbe20cc3a	-0.15702906
37	0x3f4aeb2d	0.792651
38	0xbeb6e21f	-0.35719392
39	0x34795c26	2.3223456e-07
40	0xbebcf98b	-0.36909136
41	0x3490b3b0	2.695283e-07
42	0xbec95fca	-0.39330894
43	0xbe49e9a9	-0.1971804
44	0x347f0801	2.3751637e-07
45	0xbdeafadc	-0.11473629
46	0x3ede561c	0.4342507
47	0xbf52ea43	-0.82388705
48	0xb41fc73a	-1.4880507e-07
49	0xbf5a594f	-0.85292524
50	0x3515f318	5.5860573e-07
51	0x34ac2dcb	3.2070815e-07
52	0x3f9b8b2d	1.2151848
53	0x3f897ef3	1.0741867
54	0x359349bb	1.0973812e-06
55	0xbe16f851	-0.14743163
56	0xbed474d8	-0.41495395
57	0x3fa65dae	1.2997339
58	0x3f3bba08	0.73330736
59	0xbe1cade1	-0.15300705
60	0xb4b73c21	-3.4130156e-07
61	0xbdff142b	-0.124550186
62	0x34ec9a7f	4.4070836e-07
63	0xbf4c4842	-0.79797757
64	0x34e79c7c	4.314096e-07
65	0x3d8b131a	0.06790753
66	0x3daa8e9a	0.0832798
67	0xbcf11951	-0.029431017
68	0x3dc343fb	0.095344506
69	0x3daf0781	0.08546353
70	0x3db02229	0.086002655
71	0xb3dd1d9d	-1.0296501e-07
72	0xb2e34126	-2.6455904e-08
73	0x3d9b598a	0.075854376
74	0x3da1ea87	0.07906061
75	0x3d5a30ad	0.053269077
76	0xb46a587f	-2.1825143e-07
77	0x349a579d	2.8748482e-07
78	0xbd260814	-0.040535048
79	0x3d526e83	0.051374923
80	0xbc87facb	-0.01659908
81	0x3db6d054	0.08926454
82	0xbcc1bccc	-0.023649596
83	0xbd2f2bb3	-0.042766284
84	0x3d379199	0.044816587
85	0x3d48bf4f	0.04901057
86	0xb40eb43e	-1.3290352e-07
87	0xbd240d26	-0.0400516
88	0xb39c7f88	-7.287514e-08
89	0xb4b25a8a	-3.322096e-07
90	0xb4442d3c	-1.8270379e-07
91	0x3d8f3b47	0.06993728
92	0x2fab53e4	3.1164327e-10
93	0x3d68bc8b	0.056820434
94	0x3d4fe91a	0.050759412
95	0xbc9c8a67	-0.019108964
96	0xbcfbb6f3	-0.030726885
97	0x3d858174	0.06518832
98	0xbd2f325a	-0.04277263
99	0xbcf96372	-0.030442927
100	0x3d9032ec	0.070409626
101	0x3d0a6340	0.03378606
102	0xbd855fd1	-0.06512416
103	0x34548893	1.9793724e-07
104	0xbcbf51c7	-0.023354424
105	0xb4f9e40b	-4.6545787e-07
106	0xbd7f712a	-0.06236378
107	0x3da16d73	0.07882204
108	0x34b5c739	3.385883e-07
109	0x3dbce357	0.09223049
110	0xbd1f1bf5	-0.03884502
111	0x3d890979	0.0669126
112	0x3519a681	5.7239237e-07
113	0x3d290139	0.04126093
114	0xb2f0092c	-2.7943848e-08
115	0xb4ba6f4a	-3.4726173e-07
116	0xbcb52fa7	-0.022117449
117	0xbc9e86e8	-0.019351438
118	0xb4d83268	-4.026981e-07
119	0x3db75596	0.08951871
120	0xbd341806	-0.043968223
121	0xbc82bd5f	-0.01595944
122	0x3d6cac29	0.057781372
123	0x3d90c3da	0.07068606
124	0x34a9e9f1	3.1648918e-07
125	0x3d9f320a	0.07773216
126	0x3512d9a1	5.470593e-07
127	0x3d5afaf6	0.05346199
128	0x34aa3c31	3.1708763e-07
129	0x3cf10a49	0.02942385
130	0x3d2609bf	0.04053664
131	0x3d7f4e4a	0.06233052
132	0x3cf5e9d1	0.030018719
133	0x3cd171f0	0.025567025
134	0x3d47d1d2	0.048784085
135	0x349efdc0	2.961442e-07
136	0x348bd6d3	2.6047073e-07
137	0x3d107f11	0.03527743
138	0x3cf98768	0.030460075
139	0x3d8be05b	0.06829902
140	0xb4cc3f9e	-3.804425e-07
141	0x344d018e	1.9092678e-07
142	0x3c95dc60	0.01829356
143	0x3da35d9f	0.07976841
144	0xbce179e9	-0.027523952
145	0x3d0936ab	0.0334994
146	0xbd2694a8	-0.040669113
147	0x3d8666ec	0.065625995
148	0xbba06add	-0.0048955516
149	0x3d8b12fa	0.06790729
150	0x33fa7169	1.16621614e-07
151	0x3d2b946c	0.041889593
152	0xb2aa144b	-1.9799833e-08
153	0xb33cfe91	-4.4003688e-08
154	0x3479c78f	2.3262531e-07
155	0x3ceea5c3	0.029131776
156	0x33da4c85	1.0165335e-07
157	0x3cf45ccf	0.02982941
158	0x3d9b8e04	0.07595447
159	0xbd0de09f	-0.034638043
160	0x3d48bf46	0.049010538
161	0x3da9f767	0.082991414
162	0x3d3e8b8b	0.046519797
163	0x3c7d8190	0.015472785
164	0x3d2aa065	0.04165687
165	0xbbeebd1c	-0.007285727
166	0x3d397c51	0.045284573
167	0xb483ca52	-2.454786e-07
168	0x3d4440ba	0.04791329
169	0xb358e7e1	-5.050231e-08
170	0x3d3d24a1	0.04617751
171	0x3d3b34ea	0.04570476
172	0x3362acfe	5.277706e-08
173	0x3cf9c439	0.030489074
174	0x3c261fb2	0.010139393
175	0x3d72483d	0.059150923
176	0xb4d77777	-4.0133793e-07
177	0x3d8ad789	0.06779391
178	0x34c92746	3.7467743e-07
179	0x33588266	5.0410016e-08
180	0xbced76b9	-0.028987275
181	0xbd21bddf	-0.039487716
182	0xb4aecc19	-3.2558526e-07
183	0x3d241986	0.040063404
184	0x3d3e0912	0.04639537
185	0xbd38340a	-0.044971503
186	0x3c2a230d	0.010384333
187	0x3d0decaa	0.03464953
188	0x3427306c	1.5570703e-07
189	0x3d2ad970	0.04171127
190	0x342457a5	1.5305575e-07
191	0x3d92d624	0.0716975
192	0xb484d028	-2.473837e-07
193	0x3ce64384	0.028108366
194	0x3cb57546	0.022150647
195	0x3c3f2989	0.011667618
196	0x3d16bddb	0.036802154
197	0x3cb3f0c3	0.02196539
198	0x3d16a59a	0.036779024
199	0x34db4acf	4.084636e-07
200	0x33eb40aa	1.09548026e-07
201	0x3cd26faa	0.025688011
202	0x3d0aec24	0.033916607
203	0x3c148375	0.009064545
204	0xb4be3913	-3.5431785e-07
205	0xb38745a2	-6.2990935e-08
206	0x3c3ce774	0.011529792
207	0x3c6a6581	0.014306427
208	0x3ca13fab	0.01968368
209	0x3d0c64bf	0.034275766
210	0x3cb52a37	0.022114856
211	0xbb117dca	-0.002220022
212	0x3cfc2fb6	0.03078447
213	0x3c593319	0.013256812
214	0xb4a03c26	-2.9846086e-07
215	0x3c112670	0.008859262
216	0xb4c7142e	-3.708132e-07
217	0xb4ab0039	-3.1851394e-07
218	0xb4190742	-1.4251876e-07
219	0x3c8a6628	0.016894415
220	0x34cbd424	3.796605e-07
221	0x3c6fb9c8	0.014631696
222	0x3cb34135	0.02188168
223	0x3cd9cee6	0.026587915
224	0x3bc3ec83	0.005979122
225	0x3c235f7f	0.0099714985
226	0xbbc9bc60	-0.0061564893
227	0x3c68e09c	0.014213707
228	0x3c86ce11	0.016455682
229	0x3c8e03e4	0.01733584
230	0x3c89bc26	0.016813349
231	0xb51da638	-5.872894e-07
232	0xb7fae4e4	-2.9908908e-05
233	0x32df64b0	2.6006404e-08
234	0x3c9dfae2	0.01928467
235	0x3ce8bf0f	0.028411416
236	0xb4d2eb9e	-3.9286982e-07
237	0x3ca46e62	0.020072166
238	0x3c07693a	0.008264834
239	0x3c25443d	0.01008707
240	0x34c3e278	3.6486358e-07
241	0xba90d12c	-0.0011048666
242	0xb47a0498	-2.3284736e-07
243	0x32ab98cd	1.9976506e-08
244	0x3cd51b8d	0.026014114
245	0x3c84ebd4	0.016225733
246	0xb459f2fd	-2.0298098e-07
247	0x3c8a3098	0.016868874
248	0x3c202ad1	0.009775833
249	0x3cca2bc7	0.024679078
250	0x3d003583	0.031301033
251	0x3cc74c3f	0.02432835
252	0xb3d5fe16	-9.9648034e-08
253	0x3cc20ba4	0.023687191
254	0x3353705b	4.9229453e-08
255	0x3c97f8c1	0.018551232

convs.0.bias f4 [64]
0	0xbcfb917b	-0.030709019
1	0x3c6e0bbf	0.014529168
2	0x3c7ee33c	0.015557107
3	0x3cc5ddf0	0.02415368
4	0x3c1b86cf	0.00949259
5	0x3c6afd4f	0.01434262
6	0x3c7916ad	0.01520316
7	0xbd24d12f	-0.040238556
8	0xb9ead659	-0.0004479166
9	0x3c719c1d	0.014746693
10	0x3c659b70	0.01401411
11	0x3d4bcff3	0.049758863
12	0xbce4772d	-0.027888859
13	0xbc5aa5bd	-0.013345179
14	0x3d0b75e7	0.034047987
15	0x3d514c7f	0.051098343
16	0x3cd39e58	0.02583234
17	0x3c637475	0.013882746
18	0x3ce4f79b	0.027950099
19	0x3c8aba41	0.016934516
20	0x3ccffa2f	0.025387852
21	0x3d630382	0.055423267
22	0xb9c34667	-0.00037245752
23	0x3c9ba0a2	0.018997494
24	0xbd21de3f	-0.03951859
25	0xbc96f603	-0.018427854
26	0xbae7f244	-0.0017696102
27	0x3c58c12f	0.013229652
28	0xbd0879d8	-0.033319324
29	0x3c4c5939	0.012472444
30	0x3d60cc92	0.054882593
31	0x3ce554a8	0.027994469
32	0x3c79248c	0.015206467
33	0x3d49fef2	0.0493154
34	0x3c81a0e5	0.01582379
35	0x3ceb7d0e	0.028746154
36	0x3c80a71a	0.01570468
37	0x3cbaaa02	0.022786144
38	0x3c63588d	0.013876093
39	0xbcec13bf	-0.02881801
40	0x3c969239	0.018380271
41	0xbb06ad85	-0.0020550203
42	0x3c9b845f	0.018984018
43	0x3c77a148	0.015114136
44	0xbabfe1a4	-0.001463939
45	0x3c660b10	0.014040723
46	0x3cd6c591	0.026217254
47	0x3d4a3dca	0.049375333
48	0xbcda9225	-0.026681015
49	0x3d2f74d4	0.042836025
50	0xbab5f8b5	-0.0013883325
51	0xbca3c380	-0.019990683
52	0x3cd1d87a	0.02561592
53	0x3ce71f9a	0.028213311
54	0xbb199c26	-0.002343902
55	0x3c6040ef	0.013687356
56	0x3c96fe9f	0.01843196
57	0x3cc16bf6	0.02361105
58	0x3cb73299	0.022362994
59	0x3c48fd77	0.012267462
60	0xbb9340d9	-0.0044938144
61	0x3c5a0d01	0.013308764
62	0xbbda9405	-0.0066704773
63	0x3d53bd8c	0.051694438

convs.1.weight f4 [64, 3]
0	0x3e6c6a73	0.23087482
1	0xbbae9f04	-0.0053290147
2	0x3e259be6	0.16172752
3	0xbff37d8e	-1.9022691
4	0x3fa55824	1.2917523
5	0xbfc931bf	-1.5718306
6	0xbfb8de3c	-1.444282
7	0x3fcc9c0e	1.5985124
8	0xbfde3971	-1.736128
9	0xbfcb53cb	-1.5884947
10	0xbfc26603	-1.5187382
11	0x3fcb3cd7	1.5877942
12	0xbfac296f	-1.3450145
13	0x3fd96517	1.6983975
14	0xbff0fc84	-1.8827062
15	0xbf9ff4c7	-1.2496575
16	0x3fda771e	1.7067602
17	0xbfd75d8a	-1.6825421
18	0xbfb838df	-1.4392356
19	0x3fccedb8	1.6010046
20	0xbfb74eeb	-1.4320959
21	0x3e378f1d	0.17925687
22	0xbb88600f	-0.0041618417
23	0xbe5a19a9	-0.21298851
24	0xbdb599d4	-0.08867231
25	0xbd5b98d6	-0.053612553
26	0xbc0f766a	-0.008756259
27	0xbf9cf91e	-1.2263525
28	0x3fd82218	1.6885405
29	0xbfdad794	-1.7097039
30	0xbfaf1e13	-1.3681053
31	0x3fdb440d	1.7130142
32	0xbfbe176c	-1.4850898
33	0xbfaf53c3	-1.3697437
34	0x3fe3194c	1.7742095
35	0x3fb43c7f	1.4080962
36	0x3d8d884f	0.069107644
37	0xbd8454a4	-0.064614564
38	0xbc7e95c8	-0.01553864
39	0x3e516d70	0.20451903
40	0x3e32004b	0.17382924
41	0x3dca8b29	0.09889824
42	0x3f9033b6	1.1265781
43	0xbfd1026a	-1.6328862
44	0x3f971e70	1.1806164
45	0xbfb32e09	-1.3998424
46	0x3fab57af	1.3386134
47	0x3fc24516	1.5177333
48	0x3f97d14b	1.1860746
49	0xbfb08638	-1.379096
50	0xbfd204fe	-1.6407773
51	0xbfa240d1	-1.267603
52	0x3fc6b445	1.5523764
53	0xbfeb7f6f	-1.8398265
54	0x3fc560d8	1.5420179
55	0xbfd0300a	-1.626466
56	0xbf8c2225	-1.094792
57	0xbfc1ec49	-1.5150234
58	0xbfc5e9e9	-1.5462009
59	0x3fc5d61f	1.545597
60	0x3fc3f5e5	1.5309416
61	0x3fa8b5b0	1.3180447
62	0xbfb7f53f	-1.4371718
63	0xbfa6b722	-1.3024638
64	0x3fbed60e	1.4909074
65	0x3fcc191f	1.5945166
66	0x3be3b967	0.006949592
67	0x3c47275b	0.012155379
68	0x3c7666c8	0.015039153
69	0xbfb4e748	-1.4133081
70	0xbfbdc9bd	-1.4827191
71	0x3fd89016	1.6918972
72	0x3e0a1a3e	0.13486573
73	0xbe493305	-0.19648369
74	0x3d54ef34	0.051985934
75	0x3da739c9	0.081653185
76	0x3c4f80bc	0.01266497
77	0xbe3ad8c3	-0.1824675
78	0x3eaa65c1	0.33280757
79	0x3e47643c	0.1947183
80	0x3e2d5f76	0.16930947
81	0xbf9cf9ba	-1.226371
82	0x3fc4e259	1.5381576
83	0xbff0f52b	-1.8824819
84	0x3d3d2424	0.046177045
85	0xbe49803b	-0.19677822
86	0xbe22e632	-0.15908125
87	0xbfa5ca3d	-1.2952343
88	0x3fb6d867	1.4284791
89	0xbfbafd49	-1.4608546
90	0xbfc90630	-1.5705013
91	0x3faf32c4	1.3687367
92	0x3fafa246	1.3721397
93	0x3fc2ff55	1.5234171
94	0xbf9ff7b0	-1.2497463
95	0xbfb68b8d	-1.4261338
96	0xbfa2bf5e	-1.2714651
97	0xbfe5e22a	-1.7959645
98	0x3fc50246	1.5391319
99	0xbfa306d9	-1.2736465
100	0x3fda2cd4	1.704493
101	0x3fbd2915	1.4778162
102	0xbf866504	-1.0499578
103	0xbfc0964e	-1.5045869
104	0x3fdaabc6	1.7083671
105	0x3fac9373	1.3482498
106	0xbfc2003f	-1.5156325
107	0x3fd4f4ee	1.6637247
108	0xbfacada0	-1.3490486
109	0x3fc9da93	1.5769829
110	0xbfcba56e	-1.590986
111	0x3fda02b5	1.7032076
112	0x3f9f6db3	1.2455353
113	0xbf9c114d	-1.219278
114	0xbfaa4d0e	-1.3304765
115	0xc004cffd	-2.0751946
116	0x3fce15f1	1.6100446
117	0x3d4be23e	0.04977631
118	0xbe1b984f	-0.1519482
119	0x3e0f8049	0.1401378
120	0xbfbc005e	-1.4687612
121	0xbfb2b7d3	-1.3962349
122	0x3fd4d217	1.6626614
123	0xbe5a3c90	-0.21312165
124	0xbe12c17f	-0.14331625
125	0xbe2cfe1a	-0.16893807
126	0xbfaf981d	-1.3718296
127	0xbfe08803	-1.7541507
128	0x3fd64553	1.6739906
129	0xbfa82a72	-1.3137953
130	0x3fd2b51f	1.6461524
131	0xbfd6e235	-1.6787783
132	0xbe89620d	-0.2683262
133	0xbdc3f930	-0.09569013
134	0xbe36b0a2	-0.17840818
135	0xbf88c21b	-1.0684236
136	0x3fdb2ece	1.7123659
137	0xbfe5a402	-1.7940676
138	0x3faad75f	1.3346976
139	0xbfc66755	-1.5500284
140	0x3fda0204	1.7031865
141	0xbfa89637	-1.3170842
142	0x3fd73ccb	1.6815428
143	0x3fcadb64	1.5848203
144	0x3d38fad9	0.045161102
145	0xbd1dd0fa	-0.038529374
146	0x3d02a627	0.031896736
147	0xbfc65166	-1.5493591
148	0x3f841da7	1.0321549
149	0x3fea041d	1.8282505
150	0x3d82f06d	0.06393514
151	0xbe1d036e	-0.1533334
152	0x3e051684	0.1299687
153	0x3df68e84	0.120389014
154	0xbe1a8078	-0.1508807
155	0x3e187fe4	0.14892536
156	0x3fcdd72b	1.6081289
157	0xbfe93441	-1.8219072
158	0xbfaa202c	-1.3291068
159	0x3fbb3adc	1.4627337
160	0xbfc159cf	-1.5105532
161	0xbfafd810	-1.3737812
162	0x3d9bf39d	0.07614825
163	0xbe591aa1	-0.21201564
164	0x3e47c8a2	0.19510129
165	0xbf9f0c3c	-1.2425609
166	0x3fbe097b	1.4846643
167	0xbfc63bda	-1.5487015
168	0xbfc50291	-1.5391408
169	0xbfd54f5a	-1.6664841
170	0x3fd4c266	1.6621826
171	0x4005bd10	2.0896645
172	0xbffcd0da	-1.9751236
173	0xbff7e373	-1.9366287
174	0x3fb6f0cd	1.4292237
175	0x3fb56f5a	1.4174607
176	0xbfab4bb4	-1.3382478
177	0xbfc1f72b	-1.5153555
178	0x3fd3c42f	1.6544245
179	0xbfca10f6	-1.5786426
180	0x3da57b74	0.080801874
181	0x3d98db01	0.07463647
182	0x3e7014a2	0.23445371
183	0xbf845ef2	-1.0341475
184	0x3fd68471	1.6759168
185	0xbfc66599	-1.5499755
186	0xbc2ed52c	-0.010670941
187	0xbe048fc5	-0.12945469
188	0xbdcd9ef0	-0.100400805
189	0xbfa7e4d1	-1.3116704
190	0x3fbe0454	1.4845071
191	0x3fca7652	1.5817358

convs.1.bias f4 [3]
0	0x3ca154d9	0.019693779
1	0xbe5e4607	-0.21706401
2	0x3e2e0b27	0.16996442
